{
  "format": "graph-model",
  "generatedBy": "https://github.com/notAI-tech/NudeNet",
  "convertedBy": "https://github.com/vladmandic",
  "signature":
  {
      "inputs":
      {
          "images": {"name":"input_1:0","dtype":"DT_FLOAT","tensorShape":{"dim":[{"size":"-1"},{"size":"-1"},{"size":"-1"},{"size":"3"}]}}
      },
      "outputs":
      {
          "output2": {"name":"filtered_detections/map/TensorArrayStack_1/TensorArrayGatherV3:0","dtype":"DT_FLOAT","tensorShape":{"dim":[{"size":"-1"},{"size":"300"}]}},
          "output1": {"name":"filtered_detections/map/TensorArrayStack/TensorArrayGatherV3:0","dtype":"DT_FLOAT","tensorShape":{"dim":[{"size":"-1"},{"size":"300"},{"size":"4"}]}},
          "output3": {"name":"filtered_detections/map/TensorArrayStack_2/TensorArrayGatherV3:0","dtype":"DT_INT32","tensorShape":{"dim":[{"size":"-1"},{"size":"300"}]}}
      }
  },
  "modelTopology":
  {
      "versions": {
        "producer": "v2",
        "minConsumer": "default"
      },
      "library": {},
      "node":
      [
          {"name":"filtered_detections/map/TensorArrayStack/range/start","op":"Const","attr":{"dtype":{"type":"DT_INT32"},"value":{"tensor":{"dtype":"DT_INT32","tensorShape":{}}}}},
          {"name":"filtered_detections/map/TensorArrayStack/range/delta","op":"Const","attr":{"dtype":{"type":"DT_INT32"},"value":{"tensor":{"dtype":"DT_INT32","tensorShape":{}}}}},
          {"name":"filtered_detections/map/TensorArrayStack_1/range/start","op":"Const","attr":{"dtype":{"type":"DT_INT32"},"value":{"tensor":{"dtype":"DT_INT32","tensorShape":{}}}}},
          {"name":"filtered_detections/map/TensorArrayStack_1/range/delta","op":"Const","attr":{"dtype":{"type":"DT_INT32"},"value":{"tensor":{"dtype":"DT_INT32","tensorShape":{}}}}},
          {"name":"filtered_detections/map/TensorArrayStack_2/range/start","op":"Const","attr":{"dtype":{"type":"DT_INT32"},"value":{"tensor":{"dtype":"DT_INT32","tensorShape":{}}}}},
          {"name":"filtered_detections/map/TensorArrayStack_2/range/delta","op":"Const","attr":{"dtype":{"type":"DT_INT32"},"value":{"tensor":{"dtype":"DT_INT32","tensorShape":{}}}}},
          {"name":"filtered_detections/map/TensorArrayUnstack/range/start","op":"Const","attr":{"dtype":{"type":"DT_INT32"},"value":{"tensor":{"dtype":"DT_INT32","tensorShape":{}}}}},
          {"name":"filtered_detections/map/TensorArrayUnstack/strided_slice/stack","op":"Const","attr":{"value":{"tensor":{"dtype":"DT_INT32","tensorShape":{"dim":[{"size":"1"}]}}},"dtype":{"type":"DT_INT32"}}},
          {"name":"filtered_detections/map/TensorArrayUnstack/strided_slice/stack_1","op":"Const","attr":{"dtype":{"type":"DT_INT32"},"value":{"tensor":{"dtype":"DT_INT32","tensorShape":{"dim":[{"size":"1"}]}}}}},
          {"name":"filtered_detections/map/TensorArrayUnstack/strided_slice/stack_2","op":"Const","attr":{"value":{"tensor":{"dtype":"DT_INT32","tensorShape":{"dim":[{"size":"1"}]}}},"dtype":{"type":"DT_INT32"}}},
          {"name":"filtered_detections/map/TensorArrayUnstack/range/delta","op":"Const","attr":{"value":{"tensor":{"dtype":"DT_INT32","tensorShape":{}}},"dtype":{"type":"DT_INT32"}}},
          {"name":"filtered_detections/map/TensorArrayUnstack_1/range/start","op":"Const","attr":{"dtype":{"type":"DT_INT32"},"value":{"tensor":{"dtype":"DT_INT32","tensorShape":{}}}}},
          {"name":"filtered_detections/map/TensorArrayUnstack_1/strided_slice/stack","op":"Const","attr":{"value":{"tensor":{"dtype":"DT_INT32","tensorShape":{"dim":[{"size":"1"}]}}},"dtype":{"type":"DT_INT32"}}},
          {"name":"filtered_detections/map/TensorArrayUnstack_1/strided_slice/stack_1","op":"Const","attr":{"value":{"tensor":{"dtype":"DT_INT32","tensorShape":{"dim":[{"size":"1"}]}}},"dtype":{"type":"DT_INT32"}}},
          {"name":"filtered_detections/map/TensorArrayUnstack_1/strided_slice/stack_2","op":"Const","attr":{"dtype":{"type":"DT_INT32"},"value":{"tensor":{"dtype":"DT_INT32","tensorShape":{"dim":[{"size":"1"}]}}}}},
          {"name":"filtered_detections/map/TensorArrayUnstack_1/range/delta","op":"Const","attr":{"value":{"tensor":{"dtype":"DT_INT32","tensorShape":{}}},"dtype":{"type":"DT_INT32"}}},
          {"name":"classification_submodel/pyramid_classification_reshape/strided_slice/stack","op":"Const","attr":{"value":{"tensor":{"dtype":"DT_INT32","tensorShape":{"dim":[{"size":"1"}]}}},"dtype":{"type":"DT_INT32"}}},
          {"name":"classification_submodel/pyramid_classification_reshape/strided_slice/stack_1","op":"Const","attr":{"value":{"tensor":{"dtype":"DT_INT32","tensorShape":{"dim":[{"size":"1"}]}}},"dtype":{"type":"DT_INT32"}}},
          {"name":"classification_submodel/pyramid_classification_reshape/strided_slice/stack_2","op":"Const","attr":{"value":{"tensor":{"dtype":"DT_INT32","tensorShape":{"dim":[{"size":"1"}]}}},"dtype":{"type":"DT_INT32"}}},
          {"name":"classification_submodel/pyramid_classification_reshape/Reshape/shape/1","op":"Const","attr":{"dtype":{"type":"DT_INT32"},"value":{"tensor":{"dtype":"DT_INT32","tensorShape":{}}}}},
          {"name":"classification_submodel/pyramid_classification_reshape/Reshape/shape/2","op":"Const","attr":{"value":{"tensor":{"dtype":"DT_INT32","tensorShape":{}}},"dtype":{"type":"DT_INT32"}}},
          {"name":"classification_submodel_1/pyramid_classification_reshape/strided_slice/stack","op":"Const","attr":{"dtype":{"type":"DT_INT32"},"value":{"tensor":{"dtype":"DT_INT32","tensorShape":{"dim":[{"size":"1"}]}}}}},
          {"name":"classification_submodel_1/pyramid_classification_reshape/strided_slice/stack_1","op":"Const","attr":{"value":{"tensor":{"dtype":"DT_INT32","tensorShape":{"dim":[{"size":"1"}]}}},"dtype":{"type":"DT_INT32"}}},
          {"name":"classification_submodel_1/pyramid_classification_reshape/strided_slice/stack_2","op":"Const","attr":{"dtype":{"type":"DT_INT32"},"value":{"tensor":{"dtype":"DT_INT32","tensorShape":{"dim":[{"size":"1"}]}}}}},
          {"name":"classification_submodel_1/pyramid_classification_reshape/Reshape/shape/1","op":"Const","attr":{"value":{"tensor":{"dtype":"DT_INT32","tensorShape":{}}},"dtype":{"type":"DT_INT32"}}},
          {"name":"classification_submodel_1/pyramid_classification_reshape/Reshape/shape/2","op":"Const","attr":{"dtype":{"type":"DT_INT32"},"value":{"tensor":{"dtype":"DT_INT32","tensorShape":{}}}}},
          {"name":"classification_submodel_2/pyramid_classification_reshape/strided_slice/stack","op":"Const","attr":{"value":{"tensor":{"dtype":"DT_INT32","tensorShape":{"dim":[{"size":"1"}]}}},"dtype":{"type":"DT_INT32"}}},
          {"name":"classification_submodel_2/pyramid_classification_reshape/strided_slice/stack_1","op":"Const","attr":{"dtype":{"type":"DT_INT32"},"value":{"tensor":{"dtype":"DT_INT32","tensorShape":{"dim":[{"size":"1"}]}}}}},
          {"name":"classification_submodel_2/pyramid_classification_reshape/strided_slice/stack_2","op":"Const","attr":{"value":{"tensor":{"dtype":"DT_INT32","tensorShape":{"dim":[{"size":"1"}]}}},"dtype":{"type":"DT_INT32"}}},
          {"name":"classification_submodel_2/pyramid_classification_reshape/Reshape/shape/1","op":"Const","attr":{"value":{"tensor":{"dtype":"DT_INT32","tensorShape":{}}},"dtype":{"type":"DT_INT32"}}},
          {"name":"classification_submodel_2/pyramid_classification_reshape/Reshape/shape/2","op":"Const","attr":{"value":{"tensor":{"dtype":"DT_INT32","tensorShape":{}}},"dtype":{"type":"DT_INT32"}}},
          {"name":"classification_submodel_3/pyramid_classification_reshape/strided_slice/stack","op":"Const","attr":{"value":{"tensor":{"dtype":"DT_INT32","tensorShape":{"dim":[{"size":"1"}]}}},"dtype":{"type":"DT_INT32"}}},
          {"name":"classification_submodel_3/pyramid_classification_reshape/strided_slice/stack_1","op":"Const","attr":{"dtype":{"type":"DT_INT32"},"value":{"tensor":{"dtype":"DT_INT32","tensorShape":{"dim":[{"size":"1"}]}}}}},
          {"name":"classification_submodel_3/pyramid_classification_reshape/strided_slice/stack_2","op":"Const","attr":{"value":{"tensor":{"dtype":"DT_INT32","tensorShape":{"dim":[{"size":"1"}]}}},"dtype":{"type":"DT_INT32"}}},
          {"name":"classification_submodel_3/pyramid_classification_reshape/Reshape/shape/1","op":"Const","attr":{"dtype":{"type":"DT_INT32"},"value":{"tensor":{"dtype":"DT_INT32","tensorShape":{}}}}},
          {"name":"classification_submodel_3/pyramid_classification_reshape/Reshape/shape/2","op":"Const","attr":{"dtype":{"type":"DT_INT32"},"value":{"tensor":{"dtype":"DT_INT32","tensorShape":{}}}}},
          {"name":"pyramid_classification_0/kernel","op":"Const","attr":{"value":{"tensor":{"dtype":"DT_FLOAT","tensorShape":{"dim":[{"size":"3"},{"size":"3"},{"size":"256"},{"size":"256"}]}}},"dtype":{"type":"DT_FLOAT"}}},
          {"name":"pyramid_classification_0/bias","op":"Const","attr":{"value":{"tensor":{"dtype":"DT_FLOAT","tensorShape":{"dim":[{"size":"256"}]}}},"dtype":{"type":"DT_FLOAT"}}},
          {"name":"pyramid_classification_1/kernel","op":"Const","attr":{"value":{"tensor":{"dtype":"DT_FLOAT","tensorShape":{"dim":[{"size":"3"},{"size":"3"},{"size":"256"},{"size":"256"}]}}},"dtype":{"type":"DT_FLOAT"}}},
          {"name":"pyramid_classification_1/bias","op":"Const","attr":{"value":{"tensor":{"dtype":"DT_FLOAT","tensorShape":{"dim":[{"size":"256"}]}}},"dtype":{"type":"DT_FLOAT"}}},
          {"name":"pyramid_classification_2/kernel","op":"Const","attr":{"value":{"tensor":{"dtype":"DT_FLOAT","tensorShape":{"dim":[{"size":"3"},{"size":"3"},{"size":"256"},{"size":"256"}]}}},"dtype":{"type":"DT_FLOAT"}}},
          {"name":"pyramid_classification_2/bias","op":"Const","attr":{"value":{"tensor":{"dtype":"DT_FLOAT","tensorShape":{"dim":[{"size":"256"}]}}},"dtype":{"type":"DT_FLOAT"}}},
          {"name":"pyramid_classification_3/kernel","op":"Const","attr":{"dtype":{"type":"DT_FLOAT"},"value":{"tensor":{"dtype":"DT_FLOAT","tensorShape":{"dim":[{"size":"3"},{"size":"3"},{"size":"256"},{"size":"256"}]}}}}},
          {"name":"pyramid_classification_3/bias","op":"Const","attr":{"dtype":{"type":"DT_FLOAT"},"value":{"tensor":{"dtype":"DT_FLOAT","tensorShape":{"dim":[{"size":"256"}]}}}}},
          {"name":"pyramid_classification/kernel","op":"Const","attr":{"dtype":{"type":"DT_FLOAT"},"value":{"tensor":{"dtype":"DT_FLOAT","tensorShape":{"dim":[{"size":"3"},{"size":"3"},{"size":"256"},{"size":"144"}]}}}}},
          {"name":"pyramid_classification/bias","op":"Const","attr":{"value":{"tensor":{"dtype":"DT_FLOAT","tensorShape":{"dim":[{"size":"144"}]}}},"dtype":{"type":"DT_FLOAT"}}},
          {"name":"classification_submodel_4/pyramid_classification_reshape/strided_slice/stack","op":"Const","attr":{"dtype":{"type":"DT_INT32"},"value":{"tensor":{"dtype":"DT_INT32","tensorShape":{"dim":[{"size":"1"}]}}}}},
          {"name":"classification_submodel_4/pyramid_classification_reshape/strided_slice/stack_1","op":"Const","attr":{"dtype":{"type":"DT_INT32"},"value":{"tensor":{"dtype":"DT_INT32","tensorShape":{"dim":[{"size":"1"}]}}}}},
          {"name":"classification_submodel_4/pyramid_classification_reshape/strided_slice/stack_2","op":"Const","attr":{"value":{"tensor":{"dtype":"DT_INT32","tensorShape":{"dim":[{"size":"1"}]}}},"dtype":{"type":"DT_INT32"}}},
          {"name":"classification_submodel_4/pyramid_classification_reshape/Reshape/shape/1","op":"Const","attr":{"value":{"tensor":{"dtype":"DT_INT32","tensorShape":{}}},"dtype":{"type":"DT_INT32"}}},
          {"name":"classification_submodel_4/pyramid_classification_reshape/Reshape/shape/2","op":"Const","attr":{"dtype":{"type":"DT_INT32"},"value":{"tensor":{"dtype":"DT_INT32","tensorShape":{}}}}},
          {"name":"classification/concat/axis","op":"Const","attr":{"dtype":{"type":"DT_INT32"},"value":{"tensor":{"dtype":"DT_INT32","tensorShape":{}}}}},
          {"name":"filtered_detections/map/Const","op":"Const","attr":{"value":{"tensor":{"dtype":"DT_INT32","tensorShape":{}}},"dtype":{"type":"DT_INT32"}}},
          {"name":"filtered_detections/map/while/iteration_counter","op":"Const","attr":{"dtype":{"type":"DT_INT32"},"value":{"tensor":{"dtype":"DT_INT32","tensorShape":{}}}}},
          {"name":"clipped_boxes/sub/y","op":"Const","attr":{"value":{"tensor":{"dtype":"DT_FLOAT","tensorShape":{}}},"dtype":{"type":"DT_FLOAT"}}},
          {"name":"clipped_boxes/clip_by_value/y","op":"Const","attr":{"value":{"tensor":{"dtype":"DT_FLOAT","tensorShape":{}}},"dtype":{"type":"DT_FLOAT"}}},
          {"name":"clipped_boxes/sub_1/y","op":"Const","attr":{"dtype":{"type":"DT_FLOAT"},"value":{"tensor":{"dtype":"DT_FLOAT","tensorShape":{}}}}},
          {"name":"clipped_boxes/clip_by_value_1/y","op":"Const","attr":{"dtype":{"type":"DT_FLOAT"},"value":{"tensor":{"dtype":"DT_FLOAT","tensorShape":{}}}}},
          {"name":"clipped_boxes/sub_2/y","op":"Const","attr":{"dtype":{"type":"DT_FLOAT"},"value":{"tensor":{"dtype":"DT_FLOAT","tensorShape":{}}}}},
          {"name":"clipped_boxes/clip_by_value_2/y","op":"Const","attr":{"dtype":{"type":"DT_FLOAT"},"value":{"tensor":{"dtype":"DT_FLOAT","tensorShape":{}}}}},
          {"name":"boxes/strided_slice_4/stack","op":"Const","attr":{"value":{"tensor":{"dtype":"DT_INT32","tensorShape":{"dim":[{"size":"3"}]}}},"dtype":{"type":"DT_INT32"}}},
          {"name":"boxes/strided_slice_4/stack_1","op":"Const","attr":{"value":{"tensor":{"dtype":"DT_INT32","tensorShape":{"dim":[{"size":"3"}]}}},"dtype":{"type":"DT_INT32"}}},
          {"name":"boxes/strided_slice_4/stack_2","op":"Const","attr":{"dtype":{"type":"DT_INT32"},"value":{"tensor":{"dtype":"DT_INT32","tensorShape":{"dim":[{"size":"3"}]}}}}},
          {"name":"boxes/strided_slice_5/stack","op":"Const","attr":{"value":{"tensor":{"dtype":"DT_INT32","tensorShape":{"dim":[{"size":"3"}]}}},"dtype":{"type":"DT_INT32"}}},
          {"name":"boxes/strided_slice_5/stack_1","op":"Const","attr":{"dtype":{"type":"DT_INT32"},"value":{"tensor":{"dtype":"DT_INT32","tensorShape":{"dim":[{"size":"3"}]}}}}},
          {"name":"boxes/strided_slice_5/stack_2","op":"Const","attr":{"value":{"tensor":{"dtype":"DT_INT32","tensorShape":{"dim":[{"size":"3"}]}}},"dtype":{"type":"DT_INT32"}}},
          {"name":"boxes/mul/y","op":"Const","attr":{"dtype":{"type":"DT_FLOAT"},"value":{"tensor":{"dtype":"DT_FLOAT","tensorShape":{}}}}},
          {"name":"boxes/strided_slice_6/stack","op":"Const","attr":{"value":{"tensor":{"dtype":"DT_INT32","tensorShape":{"dim":[{"size":"3"}]}}},"dtype":{"type":"DT_INT32"}}},
          {"name":"boxes/strided_slice_6/stack_1","op":"Const","attr":{"dtype":{"type":"DT_INT32"},"value":{"tensor":{"dtype":"DT_INT32","tensorShape":{"dim":[{"size":"3"}]}}}}},
          {"name":"boxes/strided_slice_6/stack_2","op":"Const","attr":{"dtype":{"type":"DT_INT32"},"value":{"tensor":{"dtype":"DT_INT32","tensorShape":{"dim":[{"size":"3"}]}}}}},
          {"name":"boxes/strided_slice_7/stack","op":"Const","attr":{"value":{"tensor":{"dtype":"DT_INT32","tensorShape":{"dim":[{"size":"3"}]}}},"dtype":{"type":"DT_INT32"}}},
          {"name":"boxes/strided_slice_7/stack_1","op":"Const","attr":{"dtype":{"type":"DT_INT32"},"value":{"tensor":{"dtype":"DT_INT32","tensorShape":{"dim":[{"size":"3"}]}}}}},
          {"name":"boxes/strided_slice_7/stack_2","op":"Const","attr":{"dtype":{"type":"DT_INT32"},"value":{"tensor":{"dtype":"DT_INT32","tensorShape":{"dim":[{"size":"3"}]}}}}},
          {"name":"boxes/mul_2/y","op":"Const","attr":{"dtype":{"type":"DT_FLOAT"},"value":{"tensor":{"dtype":"DT_FLOAT","tensorShape":{}}}}},
          {"name":"boxes/strided_slice_8/stack","op":"Const","attr":{"dtype":{"type":"DT_INT32"},"value":{"tensor":{"dtype":"DT_INT32","tensorShape":{"dim":[{"size":"3"}]}}}}},
          {"name":"boxes/strided_slice_8/stack_1","op":"Const","attr":{"value":{"tensor":{"dtype":"DT_INT32","tensorShape":{"dim":[{"size":"3"}]}}},"dtype":{"type":"DT_INT32"}}},
          {"name":"boxes/strided_slice_8/stack_2","op":"Const","attr":{"value":{"tensor":{"dtype":"DT_INT32","tensorShape":{"dim":[{"size":"3"}]}}},"dtype":{"type":"DT_INT32"}}},
          {"name":"boxes/strided_slice_9/stack","op":"Const","attr":{"dtype":{"type":"DT_INT32"},"value":{"tensor":{"dtype":"DT_INT32","tensorShape":{"dim":[{"size":"3"}]}}}}},
          {"name":"boxes/strided_slice_9/stack_1","op":"Const","attr":{"value":{"tensor":{"dtype":"DT_INT32","tensorShape":{"dim":[{"size":"3"}]}}},"dtype":{"type":"DT_INT32"}}},
          {"name":"boxes/strided_slice_9/stack_2","op":"Const","attr":{"dtype":{"type":"DT_INT32"},"value":{"tensor":{"dtype":"DT_INT32","tensorShape":{"dim":[{"size":"3"}]}}}}},
          {"name":"boxes/mul_4/y","op":"Const","attr":{"value":{"tensor":{"dtype":"DT_FLOAT","tensorShape":{}}},"dtype":{"type":"DT_FLOAT"}}},
          {"name":"boxes/strided_slice/stack","op":"Const","attr":{"value":{"tensor":{"dtype":"DT_INT32","tensorShape":{"dim":[{"size":"3"}]}}},"dtype":{"type":"DT_INT32"}}},
          {"name":"boxes/strided_slice/stack_1","op":"Const","attr":{"dtype":{"type":"DT_INT32"},"value":{"tensor":{"dtype":"DT_INT32","tensorShape":{"dim":[{"size":"3"}]}}}}},
          {"name":"boxes/strided_slice/stack_2","op":"Const","attr":{"value":{"tensor":{"dtype":"DT_INT32","tensorShape":{"dim":[{"size":"3"}]}}},"dtype":{"type":"DT_INT32"}}},
          {"name":"boxes/strided_slice_1/stack","op":"Const","attr":{"value":{"tensor":{"dtype":"DT_INT32","tensorShape":{"dim":[{"size":"3"}]}}},"dtype":{"type":"DT_INT32"}}},
          {"name":"boxes/strided_slice_1/stack_1","op":"Const","attr":{"value":{"tensor":{"dtype":"DT_INT32","tensorShape":{"dim":[{"size":"3"}]}}},"dtype":{"type":"DT_INT32"}}},
          {"name":"boxes/strided_slice_1/stack_2","op":"Const","attr":{"dtype":{"type":"DT_INT32"},"value":{"tensor":{"dtype":"DT_INT32","tensorShape":{"dim":[{"size":"3"}]}}}}},
          {"name":"boxes/strided_slice_10/stack","op":"Const","attr":{"value":{"tensor":{"dtype":"DT_INT32","tensorShape":{"dim":[{"size":"3"}]}}},"dtype":{"type":"DT_INT32"}}},
          {"name":"boxes/strided_slice_10/stack_1","op":"Const","attr":{"dtype":{"type":"DT_INT32"},"value":{"tensor":{"dtype":"DT_INT32","tensorShape":{"dim":[{"size":"3"}]}}}}},
          {"name":"boxes/strided_slice_10/stack_2","op":"Const","attr":{"dtype":{"type":"DT_INT32"},"value":{"tensor":{"dtype":"DT_INT32","tensorShape":{"dim":[{"size":"3"}]}}}}},
          {"name":"regression_submodel/pyramid_regression_reshape/strided_slice/stack","op":"Const","attr":{"value":{"tensor":{"dtype":"DT_INT32","tensorShape":{"dim":[{"size":"1"}]}}},"dtype":{"type":"DT_INT32"}}},
          {"name":"regression_submodel/pyramid_regression_reshape/strided_slice/stack_1","op":"Const","attr":{"value":{"tensor":{"dtype":"DT_INT32","tensorShape":{"dim":[{"size":"1"}]}}},"dtype":{"type":"DT_INT32"}}},
          {"name":"regression_submodel/pyramid_regression_reshape/strided_slice/stack_2","op":"Const","attr":{"dtype":{"type":"DT_INT32"},"value":{"tensor":{"dtype":"DT_INT32","tensorShape":{"dim":[{"size":"1"}]}}}}},
          {"name":"regression_submodel/pyramid_regression_reshape/Reshape/shape/1","op":"Const","attr":{"value":{"tensor":{"dtype":"DT_INT32","tensorShape":{}}},"dtype":{"type":"DT_INT32"}}},
          {"name":"regression_submodel/pyramid_regression_reshape/Reshape/shape/2","op":"Const","attr":{"value":{"tensor":{"dtype":"DT_INT32","tensorShape":{}}},"dtype":{"type":"DT_INT32"}}},
          {"name":"regression_submodel_1/pyramid_regression_reshape/strided_slice/stack","op":"Const","attr":{"value":{"tensor":{"dtype":"DT_INT32","tensorShape":{"dim":[{"size":"1"}]}}},"dtype":{"type":"DT_INT32"}}},
          {"name":"regression_submodel_1/pyramid_regression_reshape/strided_slice/stack_1","op":"Const","attr":{"value":{"tensor":{"dtype":"DT_INT32","tensorShape":{"dim":[{"size":"1"}]}}},"dtype":{"type":"DT_INT32"}}},
          {"name":"regression_submodel_1/pyramid_regression_reshape/strided_slice/stack_2","op":"Const","attr":{"dtype":{"type":"DT_INT32"},"value":{"tensor":{"dtype":"DT_INT32","tensorShape":{"dim":[{"size":"1"}]}}}}},
          {"name":"regression_submodel_1/pyramid_regression_reshape/Reshape/shape/1","op":"Const","attr":{"dtype":{"type":"DT_INT32"},"value":{"tensor":{"dtype":"DT_INT32","tensorShape":{}}}}},
          {"name":"regression_submodel_1/pyramid_regression_reshape/Reshape/shape/2","op":"Const","attr":{"value":{"tensor":{"dtype":"DT_INT32","tensorShape":{}}},"dtype":{"type":"DT_INT32"}}},
          {"name":"regression_submodel_2/pyramid_regression_reshape/strided_slice/stack","op":"Const","attr":{"value":{"tensor":{"dtype":"DT_INT32","tensorShape":{"dim":[{"size":"1"}]}}},"dtype":{"type":"DT_INT32"}}},
          {"name":"regression_submodel_2/pyramid_regression_reshape/strided_slice/stack_1","op":"Const","attr":{"value":{"tensor":{"dtype":"DT_INT32","tensorShape":{"dim":[{"size":"1"}]}}},"dtype":{"type":"DT_INT32"}}},
          {"name":"regression_submodel_2/pyramid_regression_reshape/strided_slice/stack_2","op":"Const","attr":{"dtype":{"type":"DT_INT32"},"value":{"tensor":{"dtype":"DT_INT32","tensorShape":{"dim":[{"size":"1"}]}}}}},
          {"name":"regression_submodel_2/pyramid_regression_reshape/Reshape/shape/1","op":"Const","attr":{"value":{"tensor":{"dtype":"DT_INT32","tensorShape":{}}},"dtype":{"type":"DT_INT32"}}},
          {"name":"regression_submodel_2/pyramid_regression_reshape/Reshape/shape/2","op":"Const","attr":{"dtype":{"type":"DT_INT32"},"value":{"tensor":{"dtype":"DT_INT32","tensorShape":{}}}}},
          {"name":"regression_submodel_3/pyramid_regression_reshape/strided_slice/stack","op":"Const","attr":{"value":{"tensor":{"dtype":"DT_INT32","tensorShape":{"dim":[{"size":"1"}]}}},"dtype":{"type":"DT_INT32"}}},
          {"name":"regression_submodel_3/pyramid_regression_reshape/strided_slice/stack_1","op":"Const","attr":{"dtype":{"type":"DT_INT32"},"value":{"tensor":{"dtype":"DT_INT32","tensorShape":{"dim":[{"size":"1"}]}}}}},
          {"name":"regression_submodel_3/pyramid_regression_reshape/strided_slice/stack_2","op":"Const","attr":{"dtype":{"type":"DT_INT32"},"value":{"tensor":{"dtype":"DT_INT32","tensorShape":{"dim":[{"size":"1"}]}}}}},
          {"name":"regression_submodel_3/pyramid_regression_reshape/Reshape/shape/1","op":"Const","attr":{"dtype":{"type":"DT_INT32"},"value":{"tensor":{"dtype":"DT_INT32","tensorShape":{}}}}},
          {"name":"regression_submodel_3/pyramid_regression_reshape/Reshape/shape/2","op":"Const","attr":{"dtype":{"type":"DT_INT32"},"value":{"tensor":{"dtype":"DT_INT32","tensorShape":{}}}}},
          {"name":"pyramid_regression_0/kernel","op":"Const","attr":{"value":{"tensor":{"dtype":"DT_FLOAT","tensorShape":{"dim":[{"size":"3"},{"size":"3"},{"size":"256"},{"size":"256"}]}}},"dtype":{"type":"DT_FLOAT"}}},
          {"name":"pyramid_regression_0/bias","op":"Const","attr":{"dtype":{"type":"DT_FLOAT"},"value":{"tensor":{"dtype":"DT_FLOAT","tensorShape":{"dim":[{"size":"256"}]}}}}},
          {"name":"pyramid_regression_1/kernel","op":"Const","attr":{"dtype":{"type":"DT_FLOAT"},"value":{"tensor":{"dtype":"DT_FLOAT","tensorShape":{"dim":[{"size":"3"},{"size":"3"},{"size":"256"},{"size":"256"}]}}}}},
          {"name":"pyramid_regression_1/bias","op":"Const","attr":{"value":{"tensor":{"dtype":"DT_FLOAT","tensorShape":{"dim":[{"size":"256"}]}}},"dtype":{"type":"DT_FLOAT"}}},
          {"name":"pyramid_regression_2/kernel","op":"Const","attr":{"dtype":{"type":"DT_FLOAT"},"value":{"tensor":{"dtype":"DT_FLOAT","tensorShape":{"dim":[{"size":"3"},{"size":"3"},{"size":"256"},{"size":"256"}]}}}}},
          {"name":"pyramid_regression_2/bias","op":"Const","attr":{"value":{"tensor":{"dtype":"DT_FLOAT","tensorShape":{"dim":[{"size":"256"}]}}},"dtype":{"type":"DT_FLOAT"}}},
          {"name":"pyramid_regression_3/kernel","op":"Const","attr":{"dtype":{"type":"DT_FLOAT"},"value":{"tensor":{"dtype":"DT_FLOAT","tensorShape":{"dim":[{"size":"3"},{"size":"3"},{"size":"256"},{"size":"256"}]}}}}},
          {"name":"pyramid_regression_3/bias","op":"Const","attr":{"value":{"tensor":{"dtype":"DT_FLOAT","tensorShape":{"dim":[{"size":"256"}]}}},"dtype":{"type":"DT_FLOAT"}}},
          {"name":"pyramid_regression/kernel","op":"Const","attr":{"dtype":{"type":"DT_FLOAT"},"value":{"tensor":{"dtype":"DT_FLOAT","tensorShape":{"dim":[{"size":"3"},{"size":"3"},{"size":"256"},{"size":"36"}]}}}}},
          {"name":"pyramid_regression/bias","op":"Const","attr":{"dtype":{"type":"DT_FLOAT"},"value":{"tensor":{"dtype":"DT_FLOAT","tensorShape":{"dim":[{"size":"36"}]}}}}},
          {"name":"regression_submodel_4/pyramid_regression_reshape/strided_slice/stack","op":"Const","attr":{"dtype":{"type":"DT_INT32"},"value":{"tensor":{"dtype":"DT_INT32","tensorShape":{"dim":[{"size":"1"}]}}}}},
          {"name":"regression_submodel_4/pyramid_regression_reshape/strided_slice/stack_1","op":"Const","attr":{"dtype":{"type":"DT_INT32"},"value":{"tensor":{"dtype":"DT_INT32","tensorShape":{"dim":[{"size":"1"}]}}}}},
          {"name":"regression_submodel_4/pyramid_regression_reshape/strided_slice/stack_2","op":"Const","attr":{"dtype":{"type":"DT_INT32"},"value":{"tensor":{"dtype":"DT_INT32","tensorShape":{"dim":[{"size":"1"}]}}}}},
          {"name":"regression_submodel_4/pyramid_regression_reshape/Reshape/shape/1","op":"Const","attr":{"value":{"tensor":{"dtype":"DT_INT32","tensorShape":{}}},"dtype":{"type":"DT_INT32"}}},
          {"name":"regression_submodel_4/pyramid_regression_reshape/Reshape/shape/2","op":"Const","attr":{"dtype":{"type":"DT_INT32"},"value":{"tensor":{"dtype":"DT_INT32","tensorShape":{}}}}},
          {"name":"regression/concat/axis","op":"Const","attr":{"value":{"tensor":{"dtype":"DT_INT32","tensorShape":{}}},"dtype":{"type":"DT_INT32"}}},
          {"name":"boxes/strided_slice_11/stack","op":"Const","attr":{"dtype":{"type":"DT_INT32"},"value":{"tensor":{"dtype":"DT_INT32","tensorShape":{"dim":[{"size":"3"}]}}}}},
          {"name":"boxes/strided_slice_11/stack_1","op":"Const","attr":{"value":{"tensor":{"dtype":"DT_INT32","tensorShape":{"dim":[{"size":"3"}]}}},"dtype":{"type":"DT_INT32"}}},
          {"name":"boxes/strided_slice_11/stack_2","op":"Const","attr":{"value":{"tensor":{"dtype":"DT_INT32","tensorShape":{"dim":[{"size":"3"}]}}},"dtype":{"type":"DT_INT32"}}},
          {"name":"boxes/mul_6/y","op":"Const","attr":{"value":{"tensor":{"dtype":"DT_FLOAT","tensorShape":{}}},"dtype":{"type":"DT_FLOAT"}}},
          {"name":"boxes/strided_slice_2/stack","op":"Const","attr":{"value":{"tensor":{"dtype":"DT_INT32","tensorShape":{"dim":[{"size":"3"}]}}},"dtype":{"type":"DT_INT32"}}},
          {"name":"boxes/strided_slice_2/stack_1","op":"Const","attr":{"dtype":{"type":"DT_INT32"},"value":{"tensor":{"dtype":"DT_INT32","tensorShape":{"dim":[{"size":"3"}]}}}}},
          {"name":"boxes/strided_slice_2/stack_2","op":"Const","attr":{"dtype":{"type":"DT_INT32"},"value":{"tensor":{"dtype":"DT_INT32","tensorShape":{"dim":[{"size":"3"}]}}}}},
          {"name":"anchors_0/Reshape_2","op":"Const","attr":{"dtype":{"type":"DT_FLOAT"},"value":{"tensor":{"dtype":"DT_FLOAT","tensorShape":{"dim":[{"size":"1"},{"size":"9"},{"size":"4"}]}}}}},
          {"name":"anchors_0/Reshape_3/shape/1","op":"Const","attr":{"value":{"tensor":{"dtype":"DT_INT32","tensorShape":{}}},"dtype":{"type":"DT_INT32"}}},
          {"name":"anchors_0/Reshape_3/shape/2","op":"Const","attr":{"dtype":{"type":"DT_INT32"},"value":{"tensor":{"dtype":"DT_INT32","tensorShape":{}}}}},
          {"name":"anchors_0/meshgrid/Reshape_2/shape","op":"Const","attr":{"dtype":{"type":"DT_INT32"},"value":{"tensor":{"dtype":"DT_INT32","tensorShape":{"dim":[{"size":"2"}]}}}}},
          {"name":"anchors_0/Reshape/shape","op":"Const","attr":{"dtype":{"type":"DT_INT32"},"value":{"tensor":{"dtype":"DT_INT32","tensorShape":{"dim":[{"size":"1"}]}}}}},
          {"name":"anchors_0/meshgrid/Reshape_3/shape","op":"Const","attr":{"value":{"tensor":{"dtype":"DT_INT32","tensorShape":{"dim":[{"size":"2"}]}}},"dtype":{"type":"DT_INT32"}}},
          {"name":"anchors_0/arange_1/start","op":"Const","attr":{"value":{"tensor":{"dtype":"DT_INT32","tensorShape":{}}},"dtype":{"type":"DT_INT32"}}},
          {"name":"anchors_0/strided_slice_2/stack","op":"Const","attr":{"dtype":{"type":"DT_INT32"},"value":{"tensor":{"dtype":"DT_INT32","tensorShape":{"dim":[{"size":"1"}]}}}}},
          {"name":"anchors_0/strided_slice_2/stack_1","op":"Const","attr":{"value":{"tensor":{"dtype":"DT_INT32","tensorShape":{"dim":[{"size":"1"}]}}},"dtype":{"type":"DT_INT32"}}},
          {"name":"anchors_0/strided_slice_2/stack_2","op":"Const","attr":{"value":{"tensor":{"dtype":"DT_INT32","tensorShape":{"dim":[{"size":"1"}]}}},"dtype":{"type":"DT_INT32"}}},
          {"name":"anchors_0/arange_1/delta","op":"Const","attr":{"value":{"tensor":{"dtype":"DT_INT32","tensorShape":{}}},"dtype":{"type":"DT_INT32"}}},
          {"name":"anchors_0/Const_1","op":"Const","attr":{"value":{"tensor":{"dtype":"DT_FLOAT","tensorShape":{}}},"dtype":{"type":"DT_FLOAT"}}},
          {"name":"anchors_0/mul_1/y","op":"Const","attr":{"dtype":{"type":"DT_FLOAT"},"value":{"tensor":{"dtype":"DT_FLOAT","tensorShape":{}}}}},
          {"name":"anchors_0/arange/start","op":"Const","attr":{"value":{"tensor":{"dtype":"DT_INT32","tensorShape":{}}},"dtype":{"type":"DT_INT32"}}},
          {"name":"anchors_0/strided_slice/stack","op":"Const","attr":{"dtype":{"type":"DT_INT32"},"value":{"tensor":{"dtype":"DT_INT32","tensorShape":{"dim":[{"size":"1"}]}}}}},
          {"name":"anchors_0/strided_slice/stack_1","op":"Const","attr":{"dtype":{"type":"DT_INT32"},"value":{"tensor":{"dtype":"DT_INT32","tensorShape":{"dim":[{"size":"1"}]}}}}},
          {"name":"anchors_0/strided_slice/stack_2","op":"Const","attr":{"value":{"tensor":{"dtype":"DT_INT32","tensorShape":{"dim":[{"size":"1"}]}}},"dtype":{"type":"DT_INT32"}}},
          {"name":"anchors_0/strided_slice_1/stack","op":"Const","attr":{"dtype":{"type":"DT_INT32"},"value":{"tensor":{"dtype":"DT_INT32","tensorShape":{"dim":[{"size":"1"}]}}}}},
          {"name":"anchors_0/strided_slice_1/stack_1","op":"Const","attr":{"value":{"tensor":{"dtype":"DT_INT32","tensorShape":{"dim":[{"size":"1"}]}}},"dtype":{"type":"DT_INT32"}}},
          {"name":"anchors_0/strided_slice_1/stack_2","op":"Const","attr":{"dtype":{"type":"DT_INT32"},"value":{"tensor":{"dtype":"DT_INT32","tensorShape":{"dim":[{"size":"1"}]}}}}},
          {"name":"anchors_0/arange/delta","op":"Const","attr":{"value":{"tensor":{"dtype":"DT_INT32","tensorShape":{}}},"dtype":{"type":"DT_INT32"}}},
          {"name":"anchors_0/Const","op":"Const","attr":{"value":{"tensor":{"dtype":"DT_FLOAT","tensorShape":{}}},"dtype":{"type":"DT_FLOAT"}}},
          {"name":"anchors_0/mul/y","op":"Const","attr":{"value":{"tensor":{"dtype":"DT_FLOAT","tensorShape":{}}},"dtype":{"type":"DT_FLOAT"}}},
          {"name":"anchors_0/meshgrid/ones/Const","op":"Const","attr":{"dtype":{"type":"DT_FLOAT"},"value":{"tensor":{"dtype":"DT_FLOAT","tensorShape":{}}}}},
          {"name":"anchors_0/Reshape_1/shape","op":"Const","attr":{"dtype":{"type":"DT_INT32"},"value":{"tensor":{"dtype":"DT_INT32","tensorShape":{"dim":[{"size":"1"}]}}}}},
          {"name":"anchors_0/transpose/perm","op":"Const","attr":{"value":{"tensor":{"dtype":"DT_INT32","tensorShape":{"dim":[{"size":"2"}]}}},"dtype":{"type":"DT_INT32"}}},
          {"name":"anchors_0/strided_slice_4/stack","op":"Const","attr":{"dtype":{"type":"DT_INT32"},"value":{"tensor":{"dtype":"DT_INT32","tensorShape":{"dim":[{"size":"1"}]}}}}},
          {"name":"anchors_0/strided_slice_4/stack_1","op":"Const","attr":{"dtype":{"type":"DT_INT32"},"value":{"tensor":{"dtype":"DT_INT32","tensorShape":{"dim":[{"size":"1"}]}}}}},
          {"name":"anchors_0/strided_slice_4/stack_2","op":"Const","attr":{"value":{"tensor":{"dtype":"DT_INT32","tensorShape":{"dim":[{"size":"1"}]}}},"dtype":{"type":"DT_INT32"}}},
          {"name":"anchors_0/strided_slice_3","op":"Const","attr":{"dtype":{"type":"DT_INT32"},"value":{"tensor":{"dtype":"DT_INT32","tensorShape":{}}}}},
          {"name":"anchors_0/Reshape_4/shape/1","op":"Const","attr":{"dtype":{"type":"DT_INT32"},"value":{"tensor":{"dtype":"DT_INT32","tensorShape":{}}}}},
          {"name":"anchors_0/ExpandDims/dim","op":"Const","attr":{"value":{"tensor":{"dtype":"DT_INT32","tensorShape":{}}},"dtype":{"type":"DT_INT32"}}},
          {"name":"P4_upsampled/strided_slice/stack","op":"Const","attr":{"dtype":{"type":"DT_INT32"},"value":{"tensor":{"dtype":"DT_INT32","tensorShape":{"dim":[{"size":"1"}]}}}}},
          {"name":"P4_upsampled/strided_slice/stack_1","op":"Const","attr":{"value":{"tensor":{"dtype":"DT_INT32","tensorShape":{"dim":[{"size":"1"}]}}},"dtype":{"type":"DT_INT32"}}},
          {"name":"P4_upsampled/strided_slice/stack_2","op":"Const","attr":{"value":{"tensor":{"dtype":"DT_INT32","tensorShape":{"dim":[{"size":"1"}]}}},"dtype":{"type":"DT_INT32"}}},
          {"name":"P4_upsampled/strided_slice_1/stack","op":"Const","attr":{"dtype":{"type":"DT_INT32"},"value":{"tensor":{"dtype":"DT_INT32","tensorShape":{"dim":[{"size":"1"}]}}}}},
          {"name":"P4_upsampled/strided_slice_1/stack_1","op":"Const","attr":{"dtype":{"type":"DT_INT32"},"value":{"tensor":{"dtype":"DT_INT32","tensorShape":{"dim":[{"size":"1"}]}}}}},
          {"name":"P4_upsampled/strided_slice_1/stack_2","op":"Const","attr":{"dtype":{"type":"DT_INT32"},"value":{"tensor":{"dtype":"DT_INT32","tensorShape":{"dim":[{"size":"1"}]}}}}},
          {"name":"C3_reduced/kernel","op":"Const","attr":{"dtype":{"type":"DT_FLOAT"},"value":{"tensor":{"dtype":"DT_FLOAT","tensorShape":{"dim":[{"size":"1"},{"size":"1"},{"size":"512"},{"size":"256"}]}}}}},
          {"name":"C3_reduced/bias","op":"Const","attr":{"dtype":{"type":"DT_FLOAT"},"value":{"tensor":{"dtype":"DT_FLOAT","tensorShape":{"dim":[{"size":"256"}]}}}}},
          {"name":"P3/kernel","op":"Const","attr":{"value":{"tensor":{"dtype":"DT_FLOAT","tensorShape":{"dim":[{"size":"3"},{"size":"3"},{"size":"256"},{"size":"256"}]}}},"dtype":{"type":"DT_FLOAT"}}},
          {"name":"P3/bias","op":"Const","attr":{"dtype":{"type":"DT_FLOAT"},"value":{"tensor":{"dtype":"DT_FLOAT","tensorShape":{"dim":[{"size":"256"}]}}}}},
          {"name":"anchors_0/strided_slice_5/stack","op":"Const","attr":{"value":{"tensor":{"dtype":"DT_INT32","tensorShape":{"dim":[{"size":"1"}]}}},"dtype":{"type":"DT_INT32"}}},
          {"name":"anchors_0/strided_slice_5/stack_1","op":"Const","attr":{"value":{"tensor":{"dtype":"DT_INT32","tensorShape":{"dim":[{"size":"1"}]}}},"dtype":{"type":"DT_INT32"}}},
          {"name":"anchors_0/strided_slice_5/stack_2","op":"Const","attr":{"value":{"tensor":{"dtype":"DT_INT32","tensorShape":{"dim":[{"size":"1"}]}}},"dtype":{"type":"DT_INT32"}}},
          {"name":"anchors_0/Tile/multiples/1","op":"Const","attr":{"dtype":{"type":"DT_INT32"},"value":{"tensor":{"dtype":"DT_INT32","tensorShape":{}}}}},
          {"name":"anchors_0/Tile/multiples/2","op":"Const","attr":{"value":{"tensor":{"dtype":"DT_INT32","tensorShape":{}}},"dtype":{"type":"DT_INT32"}}},
          {"name":"anchors_1/Reshape_2","op":"Const","attr":{"value":{"tensor":{"dtype":"DT_FLOAT","tensorShape":{"dim":[{"size":"1"},{"size":"9"},{"size":"4"}]}}},"dtype":{"type":"DT_FLOAT"}}},
          {"name":"anchors_1/Reshape_3/shape/1","op":"Const","attr":{"value":{"tensor":{"dtype":"DT_INT32","tensorShape":{}}},"dtype":{"type":"DT_INT32"}}},
          {"name":"anchors_1/Reshape_3/shape/2","op":"Const","attr":{"dtype":{"type":"DT_INT32"},"value":{"tensor":{"dtype":"DT_INT32","tensorShape":{}}}}},
          {"name":"anchors_1/meshgrid/Reshape_2/shape","op":"Const","attr":{"dtype":{"type":"DT_INT32"},"value":{"tensor":{"dtype":"DT_INT32","tensorShape":{"dim":[{"size":"2"}]}}}}},
          {"name":"anchors_1/Reshape/shape","op":"Const","attr":{"dtype":{"type":"DT_INT32"},"value":{"tensor":{"dtype":"DT_INT32","tensorShape":{"dim":[{"size":"1"}]}}}}},
          {"name":"anchors_1/meshgrid/Reshape_3/shape","op":"Const","attr":{"value":{"tensor":{"dtype":"DT_INT32","tensorShape":{"dim":[{"size":"2"}]}}},"dtype":{"type":"DT_INT32"}}},
          {"name":"anchors_1/arange_1/start","op":"Const","attr":{"dtype":{"type":"DT_INT32"},"value":{"tensor":{"dtype":"DT_INT32","tensorShape":{}}}}},
          {"name":"anchors_1/strided_slice_2/stack","op":"Const","attr":{"value":{"tensor":{"dtype":"DT_INT32","tensorShape":{"dim":[{"size":"1"}]}}},"dtype":{"type":"DT_INT32"}}},
          {"name":"anchors_1/strided_slice_2/stack_1","op":"Const","attr":{"dtype":{"type":"DT_INT32"},"value":{"tensor":{"dtype":"DT_INT32","tensorShape":{"dim":[{"size":"1"}]}}}}},
          {"name":"anchors_1/strided_slice_2/stack_2","op":"Const","attr":{"value":{"tensor":{"dtype":"DT_INT32","tensorShape":{"dim":[{"size":"1"}]}}},"dtype":{"type":"DT_INT32"}}},
          {"name":"anchors_1/arange_1/delta","op":"Const","attr":{"dtype":{"type":"DT_INT32"},"value":{"tensor":{"dtype":"DT_INT32","tensorShape":{}}}}},
          {"name":"anchors_1/Const_1","op":"Const","attr":{"value":{"tensor":{"dtype":"DT_FLOAT","tensorShape":{}}},"dtype":{"type":"DT_FLOAT"}}},
          {"name":"anchors_1/mul_1/y","op":"Const","attr":{"value":{"tensor":{"dtype":"DT_FLOAT","tensorShape":{}}},"dtype":{"type":"DT_FLOAT"}}},
          {"name":"anchors_1/arange/start","op":"Const","attr":{"value":{"tensor":{"dtype":"DT_INT32","tensorShape":{}}},"dtype":{"type":"DT_INT32"}}},
          {"name":"anchors_1/strided_slice/stack","op":"Const","attr":{"dtype":{"type":"DT_INT32"},"value":{"tensor":{"dtype":"DT_INT32","tensorShape":{"dim":[{"size":"1"}]}}}}},
          {"name":"anchors_1/strided_slice/stack_1","op":"Const","attr":{"dtype":{"type":"DT_INT32"},"value":{"tensor":{"dtype":"DT_INT32","tensorShape":{"dim":[{"size":"1"}]}}}}},
          {"name":"anchors_1/strided_slice/stack_2","op":"Const","attr":{"dtype":{"type":"DT_INT32"},"value":{"tensor":{"dtype":"DT_INT32","tensorShape":{"dim":[{"size":"1"}]}}}}},
          {"name":"anchors_1/strided_slice_1/stack","op":"Const","attr":{"value":{"tensor":{"dtype":"DT_INT32","tensorShape":{"dim":[{"size":"1"}]}}},"dtype":{"type":"DT_INT32"}}},
          {"name":"anchors_1/strided_slice_1/stack_1","op":"Const","attr":{"dtype":{"type":"DT_INT32"},"value":{"tensor":{"dtype":"DT_INT32","tensorShape":{"dim":[{"size":"1"}]}}}}},
          {"name":"anchors_1/strided_slice_1/stack_2","op":"Const","attr":{"value":{"tensor":{"dtype":"DT_INT32","tensorShape":{"dim":[{"size":"1"}]}}},"dtype":{"type":"DT_INT32"}}},
          {"name":"anchors_1/arange/delta","op":"Const","attr":{"dtype":{"type":"DT_INT32"},"value":{"tensor":{"dtype":"DT_INT32","tensorShape":{}}}}},
          {"name":"anchors_1/Const","op":"Const","attr":{"value":{"tensor":{"dtype":"DT_FLOAT","tensorShape":{}}},"dtype":{"type":"DT_FLOAT"}}},
          {"name":"anchors_1/mul/y","op":"Const","attr":{"dtype":{"type":"DT_FLOAT"},"value":{"tensor":{"dtype":"DT_FLOAT","tensorShape":{}}}}},
          {"name":"anchors_1/meshgrid/ones/Const","op":"Const","attr":{"dtype":{"type":"DT_FLOAT"},"value":{"tensor":{"dtype":"DT_FLOAT","tensorShape":{}}}}},
          {"name":"anchors_1/Reshape_1/shape","op":"Const","attr":{"value":{"tensor":{"dtype":"DT_INT32","tensorShape":{"dim":[{"size":"1"}]}}},"dtype":{"type":"DT_INT32"}}},
          {"name":"anchors_1/transpose/perm","op":"Const","attr":{"dtype":{"type":"DT_INT32"},"value":{"tensor":{"dtype":"DT_INT32","tensorShape":{"dim":[{"size":"2"}]}}}}},
          {"name":"anchors_1/strided_slice_4/stack","op":"Const","attr":{"dtype":{"type":"DT_INT32"},"value":{"tensor":{"dtype":"DT_INT32","tensorShape":{"dim":[{"size":"1"}]}}}}},
          {"name":"anchors_1/strided_slice_4/stack_1","op":"Const","attr":{"dtype":{"type":"DT_INT32"},"value":{"tensor":{"dtype":"DT_INT32","tensorShape":{"dim":[{"size":"1"}]}}}}},
          {"name":"anchors_1/strided_slice_4/stack_2","op":"Const","attr":{"dtype":{"type":"DT_INT32"},"value":{"tensor":{"dtype":"DT_INT32","tensorShape":{"dim":[{"size":"1"}]}}}}},
          {"name":"anchors_1/strided_slice_3","op":"Const","attr":{"value":{"tensor":{"dtype":"DT_INT32","tensorShape":{}}},"dtype":{"type":"DT_INT32"}}},
          {"name":"anchors_1/Reshape_4/shape/1","op":"Const","attr":{"value":{"tensor":{"dtype":"DT_INT32","tensorShape":{}}},"dtype":{"type":"DT_INT32"}}},
          {"name":"anchors_1/ExpandDims/dim","op":"Const","attr":{"dtype":{"type":"DT_INT32"},"value":{"tensor":{"dtype":"DT_INT32","tensorShape":{}}}}},
          {"name":"P5_upsampled/strided_slice/stack","op":"Const","attr":{"value":{"tensor":{"dtype":"DT_INT32","tensorShape":{"dim":[{"size":"1"}]}}},"dtype":{"type":"DT_INT32"}}},
          {"name":"P5_upsampled/strided_slice/stack_1","op":"Const","attr":{"dtype":{"type":"DT_INT32"},"value":{"tensor":{"dtype":"DT_INT32","tensorShape":{"dim":[{"size":"1"}]}}}}},
          {"name":"P5_upsampled/strided_slice/stack_2","op":"Const","attr":{"dtype":{"type":"DT_INT32"},"value":{"tensor":{"dtype":"DT_INT32","tensorShape":{"dim":[{"size":"1"}]}}}}},
          {"name":"P5_upsampled/strided_slice_1/stack","op":"Const","attr":{"dtype":{"type":"DT_INT32"},"value":{"tensor":{"dtype":"DT_INT32","tensorShape":{"dim":[{"size":"1"}]}}}}},
          {"name":"P5_upsampled/strided_slice_1/stack_1","op":"Const","attr":{"value":{"tensor":{"dtype":"DT_INT32","tensorShape":{"dim":[{"size":"1"}]}}},"dtype":{"type":"DT_INT32"}}},
          {"name":"P5_upsampled/strided_slice_1/stack_2","op":"Const","attr":{"dtype":{"type":"DT_INT32"},"value":{"tensor":{"dtype":"DT_INT32","tensorShape":{"dim":[{"size":"1"}]}}}}},
          {"name":"C4_reduced/kernel","op":"Const","attr":{"dtype":{"type":"DT_FLOAT"},"value":{"tensor":{"dtype":"DT_FLOAT","tensorShape":{"dim":[{"size":"1"},{"size":"1"},{"size":"1024"},{"size":"256"}]}}}}},
          {"name":"C4_reduced/bias","op":"Const","attr":{"value":{"tensor":{"dtype":"DT_FLOAT","tensorShape":{"dim":[{"size":"256"}]}}},"dtype":{"type":"DT_FLOAT"}}},
          {"name":"P4/kernel","op":"Const","attr":{"dtype":{"type":"DT_FLOAT"},"value":{"tensor":{"dtype":"DT_FLOAT","tensorShape":{"dim":[{"size":"3"},{"size":"3"},{"size":"256"},{"size":"256"}]}}}}},
          {"name":"P4/bias","op":"Const","attr":{"dtype":{"type":"DT_FLOAT"},"value":{"tensor":{"dtype":"DT_FLOAT","tensorShape":{"dim":[{"size":"256"}]}}}}},
          {"name":"anchors_1/strided_slice_5/stack","op":"Const","attr":{"dtype":{"type":"DT_INT32"},"value":{"tensor":{"dtype":"DT_INT32","tensorShape":{"dim":[{"size":"1"}]}}}}},
          {"name":"anchors_1/strided_slice_5/stack_1","op":"Const","attr":{"dtype":{"type":"DT_INT32"},"value":{"tensor":{"dtype":"DT_INT32","tensorShape":{"dim":[{"size":"1"}]}}}}},
          {"name":"anchors_1/strided_slice_5/stack_2","op":"Const","attr":{"value":{"tensor":{"dtype":"DT_INT32","tensorShape":{"dim":[{"size":"1"}]}}},"dtype":{"type":"DT_INT32"}}},
          {"name":"anchors_1/Tile/multiples/1","op":"Const","attr":{"dtype":{"type":"DT_INT32"},"value":{"tensor":{"dtype":"DT_INT32","tensorShape":{}}}}},
          {"name":"anchors_1/Tile/multiples/2","op":"Const","attr":{"value":{"tensor":{"dtype":"DT_INT32","tensorShape":{}}},"dtype":{"type":"DT_INT32"}}},
          {"name":"anchors_2/Reshape_2","op":"Const","attr":{"value":{"tensor":{"dtype":"DT_FLOAT","tensorShape":{"dim":[{"size":"1"},{"size":"9"},{"size":"4"}]}}},"dtype":{"type":"DT_FLOAT"}}},
          {"name":"anchors_2/Reshape_3/shape/1","op":"Const","attr":{"value":{"tensor":{"dtype":"DT_INT32","tensorShape":{}}},"dtype":{"type":"DT_INT32"}}},
          {"name":"anchors_2/Reshape_3/shape/2","op":"Const","attr":{"dtype":{"type":"DT_INT32"},"value":{"tensor":{"dtype":"DT_INT32","tensorShape":{}}}}},
          {"name":"anchors_2/meshgrid/Reshape_2/shape","op":"Const","attr":{"dtype":{"type":"DT_INT32"},"value":{"tensor":{"dtype":"DT_INT32","tensorShape":{"dim":[{"size":"2"}]}}}}},
          {"name":"anchors_2/Reshape/shape","op":"Const","attr":{"dtype":{"type":"DT_INT32"},"value":{"tensor":{"dtype":"DT_INT32","tensorShape":{"dim":[{"size":"1"}]}}}}},
          {"name":"anchors_2/meshgrid/Reshape_3/shape","op":"Const","attr":{"dtype":{"type":"DT_INT32"},"value":{"tensor":{"dtype":"DT_INT32","tensorShape":{"dim":[{"size":"2"}]}}}}},
          {"name":"anchors_2/arange_1/start","op":"Const","attr":{"value":{"tensor":{"dtype":"DT_INT32","tensorShape":{}}},"dtype":{"type":"DT_INT32"}}},
          {"name":"anchors_2/strided_slice_2/stack","op":"Const","attr":{"value":{"tensor":{"dtype":"DT_INT32","tensorShape":{"dim":[{"size":"1"}]}}},"dtype":{"type":"DT_INT32"}}},
          {"name":"anchors_2/strided_slice_2/stack_1","op":"Const","attr":{"value":{"tensor":{"dtype":"DT_INT32","tensorShape":{"dim":[{"size":"1"}]}}},"dtype":{"type":"DT_INT32"}}},
          {"name":"anchors_2/strided_slice_2/stack_2","op":"Const","attr":{"dtype":{"type":"DT_INT32"},"value":{"tensor":{"dtype":"DT_INT32","tensorShape":{"dim":[{"size":"1"}]}}}}},
          {"name":"anchors_2/arange_1/delta","op":"Const","attr":{"value":{"tensor":{"dtype":"DT_INT32","tensorShape":{}}},"dtype":{"type":"DT_INT32"}}},
          {"name":"anchors_2/Const_1","op":"Const","attr":{"value":{"tensor":{"dtype":"DT_FLOAT","tensorShape":{}}},"dtype":{"type":"DT_FLOAT"}}},
          {"name":"anchors_2/mul_1/y","op":"Const","attr":{"dtype":{"type":"DT_FLOAT"},"value":{"tensor":{"dtype":"DT_FLOAT","tensorShape":{}}}}},
          {"name":"anchors_2/arange/start","op":"Const","attr":{"dtype":{"type":"DT_INT32"},"value":{"tensor":{"dtype":"DT_INT32","tensorShape":{}}}}},
          {"name":"anchors_2/strided_slice/stack","op":"Const","attr":{"value":{"tensor":{"dtype":"DT_INT32","tensorShape":{"dim":[{"size":"1"}]}}},"dtype":{"type":"DT_INT32"}}},
          {"name":"anchors_2/strided_slice/stack_1","op":"Const","attr":{"dtype":{"type":"DT_INT32"},"value":{"tensor":{"dtype":"DT_INT32","tensorShape":{"dim":[{"size":"1"}]}}}}},
          {"name":"anchors_2/strided_slice/stack_2","op":"Const","attr":{"value":{"tensor":{"dtype":"DT_INT32","tensorShape":{"dim":[{"size":"1"}]}}},"dtype":{"type":"DT_INT32"}}},
          {"name":"anchors_2/strided_slice_1/stack","op":"Const","attr":{"dtype":{"type":"DT_INT32"},"value":{"tensor":{"dtype":"DT_INT32","tensorShape":{"dim":[{"size":"1"}]}}}}},
          {"name":"anchors_2/strided_slice_1/stack_1","op":"Const","attr":{"value":{"tensor":{"dtype":"DT_INT32","tensorShape":{"dim":[{"size":"1"}]}}},"dtype":{"type":"DT_INT32"}}},
          {"name":"anchors_2/strided_slice_1/stack_2","op":"Const","attr":{"dtype":{"type":"DT_INT32"},"value":{"tensor":{"dtype":"DT_INT32","tensorShape":{"dim":[{"size":"1"}]}}}}},
          {"name":"anchors_2/arange/delta","op":"Const","attr":{"dtype":{"type":"DT_INT32"},"value":{"tensor":{"dtype":"DT_INT32","tensorShape":{}}}}},
          {"name":"anchors_2/Const","op":"Const","attr":{"dtype":{"type":"DT_FLOAT"},"value":{"tensor":{"dtype":"DT_FLOAT","tensorShape":{}}}}},
          {"name":"anchors_2/mul/y","op":"Const","attr":{"dtype":{"type":"DT_FLOAT"},"value":{"tensor":{"dtype":"DT_FLOAT","tensorShape":{}}}}},
          {"name":"anchors_2/meshgrid/ones/Const","op":"Const","attr":{"dtype":{"type":"DT_FLOAT"},"value":{"tensor":{"dtype":"DT_FLOAT","tensorShape":{}}}}},
          {"name":"anchors_2/Reshape_1/shape","op":"Const","attr":{"value":{"tensor":{"dtype":"DT_INT32","tensorShape":{"dim":[{"size":"1"}]}}},"dtype":{"type":"DT_INT32"}}},
          {"name":"anchors_2/transpose/perm","op":"Const","attr":{"value":{"tensor":{"dtype":"DT_INT32","tensorShape":{"dim":[{"size":"2"}]}}},"dtype":{"type":"DT_INT32"}}},
          {"name":"anchors_2/strided_slice_4/stack","op":"Const","attr":{"value":{"tensor":{"dtype":"DT_INT32","tensorShape":{"dim":[{"size":"1"}]}}},"dtype":{"type":"DT_INT32"}}},
          {"name":"anchors_2/strided_slice_4/stack_1","op":"Const","attr":{"value":{"tensor":{"dtype":"DT_INT32","tensorShape":{"dim":[{"size":"1"}]}}},"dtype":{"type":"DT_INT32"}}},
          {"name":"anchors_2/strided_slice_4/stack_2","op":"Const","attr":{"dtype":{"type":"DT_INT32"},"value":{"tensor":{"dtype":"DT_INT32","tensorShape":{"dim":[{"size":"1"}]}}}}},
          {"name":"anchors_2/strided_slice_3","op":"Const","attr":{"value":{"tensor":{"dtype":"DT_INT32","tensorShape":{}}},"dtype":{"type":"DT_INT32"}}},
          {"name":"anchors_2/Reshape_4/shape/1","op":"Const","attr":{"dtype":{"type":"DT_INT32"},"value":{"tensor":{"dtype":"DT_INT32","tensorShape":{}}}}},
          {"name":"anchors_2/ExpandDims/dim","op":"Const","attr":{"dtype":{"type":"DT_INT32"},"value":{"tensor":{"dtype":"DT_INT32","tensorShape":{}}}}},
          {"name":"C5_reduced/kernel","op":"Const","attr":{"value":{"tensor":{"dtype":"DT_FLOAT","tensorShape":{"dim":[{"size":"1"},{"size":"1"},{"size":"2048"},{"size":"256"}]}}},"dtype":{"type":"DT_FLOAT"}}},
          {"name":"C5_reduced/bias","op":"Const","attr":{"value":{"tensor":{"dtype":"DT_FLOAT","tensorShape":{"dim":[{"size":"256"}]}}},"dtype":{"type":"DT_FLOAT"}}},
          {"name":"P5/kernel","op":"Const","attr":{"dtype":{"type":"DT_FLOAT"},"value":{"tensor":{"dtype":"DT_FLOAT","tensorShape":{"dim":[{"size":"3"},{"size":"3"},{"size":"256"},{"size":"256"}]}}}}},
          {"name":"P5/bias","op":"Const","attr":{"dtype":{"type":"DT_FLOAT"},"value":{"tensor":{"dtype":"DT_FLOAT","tensorShape":{"dim":[{"size":"256"}]}}}}},
          {"name":"anchors_2/strided_slice_5/stack","op":"Const","attr":{"dtype":{"type":"DT_INT32"},"value":{"tensor":{"dtype":"DT_INT32","tensorShape":{"dim":[{"size":"1"}]}}}}},
          {"name":"anchors_2/strided_slice_5/stack_1","op":"Const","attr":{"dtype":{"type":"DT_INT32"},"value":{"tensor":{"dtype":"DT_INT32","tensorShape":{"dim":[{"size":"1"}]}}}}},
          {"name":"anchors_2/strided_slice_5/stack_2","op":"Const","attr":{"value":{"tensor":{"dtype":"DT_INT32","tensorShape":{"dim":[{"size":"1"}]}}},"dtype":{"type":"DT_INT32"}}},
          {"name":"anchors_2/Tile/multiples/1","op":"Const","attr":{"dtype":{"type":"DT_INT32"},"value":{"tensor":{"dtype":"DT_INT32","tensorShape":{}}}}},
          {"name":"anchors_2/Tile/multiples/2","op":"Const","attr":{"dtype":{"type":"DT_INT32"},"value":{"tensor":{"dtype":"DT_INT32","tensorShape":{}}}}},
          {"name":"anchors_3/Reshape_2","op":"Const","attr":{"dtype":{"type":"DT_FLOAT"},"value":{"tensor":{"dtype":"DT_FLOAT","tensorShape":{"dim":[{"size":"1"},{"size":"9"},{"size":"4"}]}}}}},
          {"name":"anchors_3/Reshape_3/shape/1","op":"Const","attr":{"value":{"tensor":{"dtype":"DT_INT32","tensorShape":{}}},"dtype":{"type":"DT_INT32"}}},
          {"name":"anchors_3/Reshape_3/shape/2","op":"Const","attr":{"dtype":{"type":"DT_INT32"},"value":{"tensor":{"dtype":"DT_INT32","tensorShape":{}}}}},
          {"name":"anchors_3/meshgrid/Reshape_2/shape","op":"Const","attr":{"value":{"tensor":{"dtype":"DT_INT32","tensorShape":{"dim":[{"size":"2"}]}}},"dtype":{"type":"DT_INT32"}}},
          {"name":"anchors_3/Reshape/shape","op":"Const","attr":{"value":{"tensor":{"dtype":"DT_INT32","tensorShape":{"dim":[{"size":"1"}]}}},"dtype":{"type":"DT_INT32"}}},
          {"name":"anchors_3/meshgrid/Reshape_3/shape","op":"Const","attr":{"value":{"tensor":{"dtype":"DT_INT32","tensorShape":{"dim":[{"size":"2"}]}}},"dtype":{"type":"DT_INT32"}}},
          {"name":"anchors_3/arange_1/start","op":"Const","attr":{"dtype":{"type":"DT_INT32"},"value":{"tensor":{"dtype":"DT_INT32","tensorShape":{}}}}},
          {"name":"anchors_3/strided_slice_2/stack","op":"Const","attr":{"dtype":{"type":"DT_INT32"},"value":{"tensor":{"dtype":"DT_INT32","tensorShape":{"dim":[{"size":"1"}]}}}}},
          {"name":"anchors_3/strided_slice_2/stack_1","op":"Const","attr":{"dtype":{"type":"DT_INT32"},"value":{"tensor":{"dtype":"DT_INT32","tensorShape":{"dim":[{"size":"1"}]}}}}},
          {"name":"anchors_3/strided_slice_2/stack_2","op":"Const","attr":{"value":{"tensor":{"dtype":"DT_INT32","tensorShape":{"dim":[{"size":"1"}]}}},"dtype":{"type":"DT_INT32"}}},
          {"name":"anchors_3/arange_1/delta","op":"Const","attr":{"value":{"tensor":{"dtype":"DT_INT32","tensorShape":{}}},"dtype":{"type":"DT_INT32"}}},
          {"name":"anchors_3/Const_1","op":"Const","attr":{"value":{"tensor":{"dtype":"DT_FLOAT","tensorShape":{}}},"dtype":{"type":"DT_FLOAT"}}},
          {"name":"anchors_3/mul_1/y","op":"Const","attr":{"dtype":{"type":"DT_FLOAT"},"value":{"tensor":{"dtype":"DT_FLOAT","tensorShape":{}}}}},
          {"name":"anchors_3/arange/start","op":"Const","attr":{"dtype":{"type":"DT_INT32"},"value":{"tensor":{"dtype":"DT_INT32","tensorShape":{}}}}},
          {"name":"anchors_3/strided_slice/stack","op":"Const","attr":{"dtype":{"type":"DT_INT32"},"value":{"tensor":{"dtype":"DT_INT32","tensorShape":{"dim":[{"size":"1"}]}}}}},
          {"name":"anchors_3/strided_slice/stack_1","op":"Const","attr":{"dtype":{"type":"DT_INT32"},"value":{"tensor":{"dtype":"DT_INT32","tensorShape":{"dim":[{"size":"1"}]}}}}},
          {"name":"anchors_3/strided_slice/stack_2","op":"Const","attr":{"dtype":{"type":"DT_INT32"},"value":{"tensor":{"dtype":"DT_INT32","tensorShape":{"dim":[{"size":"1"}]}}}}},
          {"name":"anchors_3/strided_slice_1/stack","op":"Const","attr":{"dtype":{"type":"DT_INT32"},"value":{"tensor":{"dtype":"DT_INT32","tensorShape":{"dim":[{"size":"1"}]}}}}},
          {"name":"anchors_3/strided_slice_1/stack_1","op":"Const","attr":{"value":{"tensor":{"dtype":"DT_INT32","tensorShape":{"dim":[{"size":"1"}]}}},"dtype":{"type":"DT_INT32"}}},
          {"name":"anchors_3/strided_slice_1/stack_2","op":"Const","attr":{"dtype":{"type":"DT_INT32"},"value":{"tensor":{"dtype":"DT_INT32","tensorShape":{"dim":[{"size":"1"}]}}}}},
          {"name":"anchors_3/arange/delta","op":"Const","attr":{"value":{"tensor":{"dtype":"DT_INT32","tensorShape":{}}},"dtype":{"type":"DT_INT32"}}},
          {"name":"anchors_3/Const","op":"Const","attr":{"value":{"tensor":{"dtype":"DT_FLOAT","tensorShape":{}}},"dtype":{"type":"DT_FLOAT"}}},
          {"name":"anchors_3/mul/y","op":"Const","attr":{"value":{"tensor":{"dtype":"DT_FLOAT","tensorShape":{}}},"dtype":{"type":"DT_FLOAT"}}},
          {"name":"anchors_3/meshgrid/ones/Const","op":"Const","attr":{"value":{"tensor":{"dtype":"DT_FLOAT","tensorShape":{}}},"dtype":{"type":"DT_FLOAT"}}},
          {"name":"anchors_3/Reshape_1/shape","op":"Const","attr":{"value":{"tensor":{"dtype":"DT_INT32","tensorShape":{"dim":[{"size":"1"}]}}},"dtype":{"type":"DT_INT32"}}},
          {"name":"anchors_3/transpose/perm","op":"Const","attr":{"dtype":{"type":"DT_INT32"},"value":{"tensor":{"dtype":"DT_INT32","tensorShape":{"dim":[{"size":"2"}]}}}}},
          {"name":"anchors_3/strided_slice_4/stack","op":"Const","attr":{"dtype":{"type":"DT_INT32"},"value":{"tensor":{"dtype":"DT_INT32","tensorShape":{"dim":[{"size":"1"}]}}}}},
          {"name":"anchors_3/strided_slice_4/stack_1","op":"Const","attr":{"dtype":{"type":"DT_INT32"},"value":{"tensor":{"dtype":"DT_INT32","tensorShape":{"dim":[{"size":"1"}]}}}}},
          {"name":"anchors_3/strided_slice_4/stack_2","op":"Const","attr":{"dtype":{"type":"DT_INT32"},"value":{"tensor":{"dtype":"DT_INT32","tensorShape":{"dim":[{"size":"1"}]}}}}},
          {"name":"anchors_3/strided_slice_3","op":"Const","attr":{"dtype":{"type":"DT_INT32"},"value":{"tensor":{"dtype":"DT_INT32","tensorShape":{}}}}},
          {"name":"anchors_3/Reshape_4/shape/1","op":"Const","attr":{"dtype":{"type":"DT_INT32"},"value":{"tensor":{"dtype":"DT_INT32","tensorShape":{}}}}},
          {"name":"anchors_3/ExpandDims/dim","op":"Const","attr":{"dtype":{"type":"DT_INT32"},"value":{"tensor":{"dtype":"DT_INT32","tensorShape":{}}}}},
          {"name":"anchors_3/strided_slice_5/stack","op":"Const","attr":{"dtype":{"type":"DT_INT32"},"value":{"tensor":{"dtype":"DT_INT32","tensorShape":{"dim":[{"size":"1"}]}}}}},
          {"name":"anchors_3/strided_slice_5/stack_1","op":"Const","attr":{"dtype":{"type":"DT_INT32"},"value":{"tensor":{"dtype":"DT_INT32","tensorShape":{"dim":[{"size":"1"}]}}}}},
          {"name":"anchors_3/strided_slice_5/stack_2","op":"Const","attr":{"value":{"tensor":{"dtype":"DT_INT32","tensorShape":{"dim":[{"size":"1"}]}}},"dtype":{"type":"DT_INT32"}}},
          {"name":"anchors_3/Tile/multiples/1","op":"Const","attr":{"dtype":{"type":"DT_INT32"},"value":{"tensor":{"dtype":"DT_INT32","tensorShape":{}}}}},
          {"name":"anchors_3/Tile/multiples/2","op":"Const","attr":{"value":{"tensor":{"dtype":"DT_INT32","tensorShape":{}}},"dtype":{"type":"DT_INT32"}}},
          {"name":"anchors_4/Reshape_2","op":"Const","attr":{"value":{"tensor":{"dtype":"DT_FLOAT","tensorShape":{"dim":[{"size":"1"},{"size":"9"},{"size":"4"}]}}},"dtype":{"type":"DT_FLOAT"}}},
          {"name":"anchors_4/Reshape_3/shape/1","op":"Const","attr":{"dtype":{"type":"DT_INT32"},"value":{"tensor":{"dtype":"DT_INT32","tensorShape":{}}}}},
          {"name":"anchors_4/Reshape_3/shape/2","op":"Const","attr":{"value":{"tensor":{"dtype":"DT_INT32","tensorShape":{}}},"dtype":{"type":"DT_INT32"}}},
          {"name":"anchors_4/meshgrid/Reshape_2/shape","op":"Const","attr":{"value":{"tensor":{"dtype":"DT_INT32","tensorShape":{"dim":[{"size":"2"}]}}},"dtype":{"type":"DT_INT32"}}},
          {"name":"anchors_4/Reshape/shape","op":"Const","attr":{"value":{"tensor":{"dtype":"DT_INT32","tensorShape":{"dim":[{"size":"1"}]}}},"dtype":{"type":"DT_INT32"}}},
          {"name":"anchors_4/meshgrid/Reshape_3/shape","op":"Const","attr":{"dtype":{"type":"DT_INT32"},"value":{"tensor":{"dtype":"DT_INT32","tensorShape":{"dim":[{"size":"2"}]}}}}},
          {"name":"anchors_4/arange_1/start","op":"Const","attr":{"dtype":{"type":"DT_INT32"},"value":{"tensor":{"dtype":"DT_INT32","tensorShape":{}}}}},
          {"name":"anchors_4/strided_slice_2/stack","op":"Const","attr":{"value":{"tensor":{"dtype":"DT_INT32","tensorShape":{"dim":[{"size":"1"}]}}},"dtype":{"type":"DT_INT32"}}},
          {"name":"anchors_4/strided_slice_2/stack_1","op":"Const","attr":{"value":{"tensor":{"dtype":"DT_INT32","tensorShape":{"dim":[{"size":"1"}]}}},"dtype":{"type":"DT_INT32"}}},
          {"name":"anchors_4/strided_slice_2/stack_2","op":"Const","attr":{"value":{"tensor":{"dtype":"DT_INT32","tensorShape":{"dim":[{"size":"1"}]}}},"dtype":{"type":"DT_INT32"}}},
          {"name":"anchors_4/arange_1/delta","op":"Const","attr":{"dtype":{"type":"DT_INT32"},"value":{"tensor":{"dtype":"DT_INT32","tensorShape":{}}}}},
          {"name":"anchors_4/Const_1","op":"Const","attr":{"value":{"tensor":{"dtype":"DT_FLOAT","tensorShape":{}}},"dtype":{"type":"DT_FLOAT"}}},
          {"name":"anchors_4/mul_1/y","op":"Const","attr":{"value":{"tensor":{"dtype":"DT_FLOAT","tensorShape":{}}},"dtype":{"type":"DT_FLOAT"}}},
          {"name":"anchors_4/arange/start","op":"Const","attr":{"dtype":{"type":"DT_INT32"},"value":{"tensor":{"dtype":"DT_INT32","tensorShape":{}}}}},
          {"name":"anchors_4/strided_slice/stack","op":"Const","attr":{"value":{"tensor":{"dtype":"DT_INT32","tensorShape":{"dim":[{"size":"1"}]}}},"dtype":{"type":"DT_INT32"}}},
          {"name":"anchors_4/strided_slice/stack_1","op":"Const","attr":{"dtype":{"type":"DT_INT32"},"value":{"tensor":{"dtype":"DT_INT32","tensorShape":{"dim":[{"size":"1"}]}}}}},
          {"name":"anchors_4/strided_slice/stack_2","op":"Const","attr":{"dtype":{"type":"DT_INT32"},"value":{"tensor":{"dtype":"DT_INT32","tensorShape":{"dim":[{"size":"1"}]}}}}},
          {"name":"anchors_4/strided_slice_1/stack","op":"Const","attr":{"dtype":{"type":"DT_INT32"},"value":{"tensor":{"dtype":"DT_INT32","tensorShape":{"dim":[{"size":"1"}]}}}}},
          {"name":"anchors_4/strided_slice_1/stack_1","op":"Const","attr":{"dtype":{"type":"DT_INT32"},"value":{"tensor":{"dtype":"DT_INT32","tensorShape":{"dim":[{"size":"1"}]}}}}},
          {"name":"anchors_4/strided_slice_1/stack_2","op":"Const","attr":{"dtype":{"type":"DT_INT32"},"value":{"tensor":{"dtype":"DT_INT32","tensorShape":{"dim":[{"size":"1"}]}}}}},
          {"name":"anchors_4/arange/delta","op":"Const","attr":{"value":{"tensor":{"dtype":"DT_INT32","tensorShape":{}}},"dtype":{"type":"DT_INT32"}}},
          {"name":"anchors_4/Const","op":"Const","attr":{"value":{"tensor":{"dtype":"DT_FLOAT","tensorShape":{}}},"dtype":{"type":"DT_FLOAT"}}},
          {"name":"anchors_4/mul/y","op":"Const","attr":{"dtype":{"type":"DT_FLOAT"},"value":{"tensor":{"dtype":"DT_FLOAT","tensorShape":{}}}}},
          {"name":"anchors_4/meshgrid/ones/Const","op":"Const","attr":{"value":{"tensor":{"dtype":"DT_FLOAT","tensorShape":{}}},"dtype":{"type":"DT_FLOAT"}}},
          {"name":"anchors_4/Reshape_1/shape","op":"Const","attr":{"value":{"tensor":{"dtype":"DT_INT32","tensorShape":{"dim":[{"size":"1"}]}}},"dtype":{"type":"DT_INT32"}}},
          {"name":"anchors_4/transpose/perm","op":"Const","attr":{"value":{"tensor":{"dtype":"DT_INT32","tensorShape":{"dim":[{"size":"2"}]}}},"dtype":{"type":"DT_INT32"}}},
          {"name":"anchors_4/strided_slice_4/stack","op":"Const","attr":{"dtype":{"type":"DT_INT32"},"value":{"tensor":{"dtype":"DT_INT32","tensorShape":{"dim":[{"size":"1"}]}}}}},
          {"name":"anchors_4/strided_slice_4/stack_1","op":"Const","attr":{"dtype":{"type":"DT_INT32"},"value":{"tensor":{"dtype":"DT_INT32","tensorShape":{"dim":[{"size":"1"}]}}}}},
          {"name":"anchors_4/strided_slice_4/stack_2","op":"Const","attr":{"value":{"tensor":{"dtype":"DT_INT32","tensorShape":{"dim":[{"size":"1"}]}}},"dtype":{"type":"DT_INT32"}}},
          {"name":"anchors_4/strided_slice_3","op":"Const","attr":{"dtype":{"type":"DT_INT32"},"value":{"tensor":{"dtype":"DT_INT32","tensorShape":{}}}}},
          {"name":"anchors_4/Reshape_4/shape/1","op":"Const","attr":{"value":{"tensor":{"dtype":"DT_INT32","tensorShape":{}}},"dtype":{"type":"DT_INT32"}}},
          {"name":"anchors_4/ExpandDims/dim","op":"Const","attr":{"value":{"tensor":{"dtype":"DT_INT32","tensorShape":{}}},"dtype":{"type":"DT_INT32"}}},
          {"name":"padding5c_branch2b/Pad/paddings","op":"Const","attr":{"dtype":{"type":"DT_INT32"},"value":{"tensor":{"dtype":"DT_INT32","tensorShape":{"dim":[{"size":"4"},{"size":"2"}]}}}}},
          {"name":"padding5b_branch2b/Pad/paddings","op":"Const","attr":{"value":{"tensor":{"dtype":"DT_INT32","tensorShape":{"dim":[{"size":"4"},{"size":"2"}]}}},"dtype":{"type":"DT_INT32"}}},
          {"name":"padding5a_branch2b/Pad/paddings","op":"Const","attr":{"dtype":{"type":"DT_INT32"},"value":{"tensor":{"dtype":"DT_INT32","tensorShape":{"dim":[{"size":"4"},{"size":"2"}]}}}}},
          {"name":"padding4f_branch2b/Pad/paddings","op":"Const","attr":{"value":{"tensor":{"dtype":"DT_INT32","tensorShape":{"dim":[{"size":"4"},{"size":"2"}]}}},"dtype":{"type":"DT_INT32"}}},
          {"name":"padding4e_branch2b/Pad/paddings","op":"Const","attr":{"dtype":{"type":"DT_INT32"},"value":{"tensor":{"dtype":"DT_INT32","tensorShape":{"dim":[{"size":"4"},{"size":"2"}]}}}}},
          {"name":"padding4d_branch2b/Pad/paddings","op":"Const","attr":{"value":{"tensor":{"dtype":"DT_INT32","tensorShape":{"dim":[{"size":"4"},{"size":"2"}]}}},"dtype":{"type":"DT_INT32"}}},
          {"name":"padding4c_branch2b/Pad/paddings","op":"Const","attr":{"dtype":{"type":"DT_INT32"},"value":{"tensor":{"dtype":"DT_INT32","tensorShape":{"dim":[{"size":"4"},{"size":"2"}]}}}}},
          {"name":"padding4b_branch2b/Pad/paddings","op":"Const","attr":{"value":{"tensor":{"dtype":"DT_INT32","tensorShape":{"dim":[{"size":"4"},{"size":"2"}]}}},"dtype":{"type":"DT_INT32"}}},
          {"name":"padding4a_branch2b/Pad/paddings","op":"Const","attr":{"dtype":{"type":"DT_INT32"},"value":{"tensor":{"dtype":"DT_INT32","tensorShape":{"dim":[{"size":"4"},{"size":"2"}]}}}}},
          {"name":"padding3d_branch2b/Pad/paddings","op":"Const","attr":{"dtype":{"type":"DT_INT32"},"value":{"tensor":{"dtype":"DT_INT32","tensorShape":{"dim":[{"size":"4"},{"size":"2"}]}}}}},
          {"name":"padding3c_branch2b/Pad/paddings","op":"Const","attr":{"dtype":{"type":"DT_INT32"},"value":{"tensor":{"dtype":"DT_INT32","tensorShape":{"dim":[{"size":"4"},{"size":"2"}]}}}}},
          {"name":"padding3b_branch2b/Pad/paddings","op":"Const","attr":{"dtype":{"type":"DT_INT32"},"value":{"tensor":{"dtype":"DT_INT32","tensorShape":{"dim":[{"size":"4"},{"size":"2"}]}}}}},
          {"name":"padding3a_branch2b/Pad/paddings","op":"Const","attr":{"dtype":{"type":"DT_INT32"},"value":{"tensor":{"dtype":"DT_INT32","tensorShape":{"dim":[{"size":"4"},{"size":"2"}]}}}}},
          {"name":"padding2c_branch2b/Pad/paddings","op":"Const","attr":{"dtype":{"type":"DT_INT32"},"value":{"tensor":{"dtype":"DT_INT32","tensorShape":{"dim":[{"size":"4"},{"size":"2"}]}}}}},
          {"name":"padding2b_branch2b/Pad/paddings","op":"Const","attr":{"dtype":{"type":"DT_INT32"},"value":{"tensor":{"dtype":"DT_INT32","tensorShape":{"dim":[{"size":"4"},{"size":"2"}]}}}}},
          {"name":"padding2a_branch2b/Pad/paddings","op":"Const","attr":{"value":{"tensor":{"dtype":"DT_INT32","tensorShape":{"dim":[{"size":"4"},{"size":"2"}]}}},"dtype":{"type":"DT_INT32"}}},
          {"name":"padding_conv1/Pad/paddings","op":"Const","attr":{"value":{"tensor":{"dtype":"DT_INT32","tensorShape":{"dim":[{"size":"4"},{"size":"2"}]}}},"dtype":{"type":"DT_INT32"}}},
          {"name":"P6/kernel","op":"Const","attr":{"value":{"tensor":{"dtype":"DT_FLOAT","tensorShape":{"dim":[{"size":"3"},{"size":"3"},{"size":"2048"},{"size":"256"}]}}},"dtype":{"type":"DT_FLOAT"}}},
          {"name":"P6/bias","op":"Const","attr":{"dtype":{"type":"DT_FLOAT"},"value":{"tensor":{"dtype":"DT_FLOAT","tensorShape":{"dim":[{"size":"256"}]}}}}},
          {"name":"P7/kernel","op":"Const","attr":{"value":{"tensor":{"dtype":"DT_FLOAT","tensorShape":{"dim":[{"size":"3"},{"size":"3"},{"size":"256"},{"size":"256"}]}}},"dtype":{"type":"DT_FLOAT"}}},
          {"name":"P7/bias","op":"Const","attr":{"value":{"tensor":{"dtype":"DT_FLOAT","tensorShape":{"dim":[{"size":"256"}]}}},"dtype":{"type":"DT_FLOAT"}}},
          {"name":"anchors_4/strided_slice_5/stack","op":"Const","attr":{"dtype":{"type":"DT_INT32"},"value":{"tensor":{"dtype":"DT_INT32","tensorShape":{"dim":[{"size":"1"}]}}}}},
          {"name":"anchors_4/strided_slice_5/stack_1","op":"Const","attr":{"dtype":{"type":"DT_INT32"},"value":{"tensor":{"dtype":"DT_INT32","tensorShape":{"dim":[{"size":"1"}]}}}}},
          {"name":"anchors_4/strided_slice_5/stack_2","op":"Const","attr":{"dtype":{"type":"DT_INT32"},"value":{"tensor":{"dtype":"DT_INT32","tensorShape":{"dim":[{"size":"1"}]}}}}},
          {"name":"anchors_4/Tile/multiples/1","op":"Const","attr":{"dtype":{"type":"DT_INT32"},"value":{"tensor":{"dtype":"DT_INT32","tensorShape":{}}}}},
          {"name":"anchors_4/Tile/multiples/2","op":"Const","attr":{"dtype":{"type":"DT_INT32"},"value":{"tensor":{"dtype":"DT_INT32","tensorShape":{}}}}},
          {"name":"anchors/concat/axis","op":"Const","attr":{"dtype":{"type":"DT_INT32"},"value":{"tensor":{"dtype":"DT_INT32","tensorShape":{}}}}},
          {"name":"boxes/strided_slice_3/stack","op":"Const","attr":{"value":{"tensor":{"dtype":"DT_INT32","tensorShape":{"dim":[{"size":"3"}]}}},"dtype":{"type":"DT_INT32"}}},
          {"name":"boxes/strided_slice_3/stack_1","op":"Const","attr":{"dtype":{"type":"DT_INT32"},"value":{"tensor":{"dtype":"DT_INT32","tensorShape":{"dim":[{"size":"3"}]}}}}},
          {"name":"boxes/strided_slice_3/stack_2","op":"Const","attr":{"dtype":{"type":"DT_INT32"},"value":{"tensor":{"dtype":"DT_INT32","tensorShape":{"dim":[{"size":"3"}]}}}}},
          {"name":"clipped_boxes/sub_3/y","op":"Const","attr":{"dtype":{"type":"DT_FLOAT"},"value":{"tensor":{"dtype":"DT_FLOAT","tensorShape":{}}}}},
          {"name":"clipped_boxes/clip_by_value_3/y","op":"Const","attr":{"dtype":{"type":"DT_FLOAT"},"value":{"tensor":{"dtype":"DT_FLOAT","tensorShape":{}}}}},
          {"name":"filtered_detections/map/strided_slice/stack","op":"Const","attr":{"value":{"tensor":{"dtype":"DT_INT32","tensorShape":{"dim":[{"size":"1"}]}}},"dtype":{"type":"DT_INT32"}}},
          {"name":"filtered_detections/map/strided_slice/stack_1","op":"Const","attr":{"dtype":{"type":"DT_INT32"},"value":{"tensor":{"dtype":"DT_INT32","tensorShape":{"dim":[{"size":"1"}]}}}}},
          {"name":"filtered_detections/map/strided_slice/stack_2","op":"Const","attr":{"value":{"tensor":{"dtype":"DT_INT32","tensorShape":{"dim":[{"size":"1"}]}}},"dtype":{"type":"DT_INT32"}}},
          {"name":"input_1","op":"Placeholder","attr":{"shape":{"shape":{"dim":[{"size":"-1"},{"size":"-1"},{"size":"-1"},{"size":"3"}]}},"dtype":{"type":"DT_FLOAT"}}},
          {"name":"conv1/convolution_weights","op":"Const","attr":{"value":{"tensor":{"dtype":"DT_FLOAT","tensorShape":{"dim":[{"size":"7"},{"size":"7"},{"size":"3"},{"size":"64"}]}}},"dtype":{"type":"DT_FLOAT"}}},
          {"name":"conv1/convolution_bn_offset","op":"Const","attr":{"dtype":{"type":"DT_FLOAT"},"value":{"tensor":{"dtype":"DT_FLOAT","tensorShape":{"dim":[{"size":"64"}]}}}}},
          {"name":"res2a_branch2a/convolution_weights","op":"Const","attr":{"value":{"tensor":{"dtype":"DT_FLOAT","tensorShape":{"dim":[{"size":"1"},{"size":"1"},{"size":"64"},{"size":"64"}]}}},"dtype":{"type":"DT_FLOAT"}}},
          {"name":"res2a_branch2a/convolution_bn_offset","op":"Const","attr":{"value":{"tensor":{"dtype":"DT_FLOAT","tensorShape":{"dim":[{"size":"64"}]}}},"dtype":{"type":"DT_FLOAT"}}},
          {"name":"res2a_branch1/convolution_weights","op":"Const","attr":{"dtype":{"type":"DT_FLOAT"},"value":{"tensor":{"dtype":"DT_FLOAT","tensorShape":{"dim":[{"size":"1"},{"size":"1"},{"size":"64"},{"size":"256"}]}}}}},
          {"name":"res2a_branch1/convolution_bn_offset","op":"Const","attr":{"value":{"tensor":{"dtype":"DT_FLOAT","tensorShape":{"dim":[{"size":"256"}]}}},"dtype":{"type":"DT_FLOAT"}}},
          {"name":"res2a_branch2b/convolution_weights","op":"Const","attr":{"value":{"tensor":{"dtype":"DT_FLOAT","tensorShape":{"dim":[{"size":"3"},{"size":"3"},{"size":"64"},{"size":"64"}]}}},"dtype":{"type":"DT_FLOAT"}}},
          {"name":"res2a_branch2b/convolution_bn_offset","op":"Const","attr":{"dtype":{"type":"DT_FLOAT"},"value":{"tensor":{"dtype":"DT_FLOAT","tensorShape":{"dim":[{"size":"64"}]}}}}},
          {"name":"res2a_branch2c/convolution_weights","op":"Const","attr":{"dtype":{"type":"DT_FLOAT"},"value":{"tensor":{"dtype":"DT_FLOAT","tensorShape":{"dim":[{"size":"1"},{"size":"1"},{"size":"64"},{"size":"256"}]}}}}},
          {"name":"res2a_branch2c/convolution_bn_offset","op":"Const","attr":{"dtype":{"type":"DT_FLOAT"},"value":{"tensor":{"dtype":"DT_FLOAT","tensorShape":{"dim":[{"size":"256"}]}}}}},
          {"name":"res2b_branch2a/convolution_weights","op":"Const","attr":{"dtype":{"type":"DT_FLOAT"},"value":{"tensor":{"dtype":"DT_FLOAT","tensorShape":{"dim":[{"size":"1"},{"size":"1"},{"size":"256"},{"size":"64"}]}}}}},
          {"name":"res2b_branch2a/convolution_bn_offset","op":"Const","attr":{"dtype":{"type":"DT_FLOAT"},"value":{"tensor":{"dtype":"DT_FLOAT","tensorShape":{"dim":[{"size":"64"}]}}}}},
          {"name":"res2b_branch2b/convolution_weights","op":"Const","attr":{"dtype":{"type":"DT_FLOAT"},"value":{"tensor":{"dtype":"DT_FLOAT","tensorShape":{"dim":[{"size":"3"},{"size":"3"},{"size":"64"},{"size":"64"}]}}}}},
          {"name":"res2b_branch2b/convolution_bn_offset","op":"Const","attr":{"dtype":{"type":"DT_FLOAT"},"value":{"tensor":{"dtype":"DT_FLOAT","tensorShape":{"dim":[{"size":"64"}]}}}}},
          {"name":"res2b_branch2c/convolution_weights","op":"Const","attr":{"dtype":{"type":"DT_FLOAT"},"value":{"tensor":{"dtype":"DT_FLOAT","tensorShape":{"dim":[{"size":"1"},{"size":"1"},{"size":"64"},{"size":"256"}]}}}}},
          {"name":"res2b_branch2c/convolution_bn_offset","op":"Const","attr":{"dtype":{"type":"DT_FLOAT"},"value":{"tensor":{"dtype":"DT_FLOAT","tensorShape":{"dim":[{"size":"256"}]}}}}},
          {"name":"res2c_branch2a/convolution_weights","op":"Const","attr":{"value":{"tensor":{"dtype":"DT_FLOAT","tensorShape":{"dim":[{"size":"1"},{"size":"1"},{"size":"256"},{"size":"64"}]}}},"dtype":{"type":"DT_FLOAT"}}},
          {"name":"res2c_branch2a/convolution_bn_offset","op":"Const","attr":{"dtype":{"type":"DT_FLOAT"},"value":{"tensor":{"dtype":"DT_FLOAT","tensorShape":{"dim":[{"size":"64"}]}}}}},
          {"name":"res2c_branch2b/convolution_weights","op":"Const","attr":{"value":{"tensor":{"dtype":"DT_FLOAT","tensorShape":{"dim":[{"size":"3"},{"size":"3"},{"size":"64"},{"size":"64"}]}}},"dtype":{"type":"DT_FLOAT"}}},
          {"name":"res2c_branch2b/convolution_bn_offset","op":"Const","attr":{"value":{"tensor":{"dtype":"DT_FLOAT","tensorShape":{"dim":[{"size":"64"}]}}},"dtype":{"type":"DT_FLOAT"}}},
          {"name":"res2c_branch2c/convolution_weights","op":"Const","attr":{"value":{"tensor":{"dtype":"DT_FLOAT","tensorShape":{"dim":[{"size":"1"},{"size":"1"},{"size":"64"},{"size":"256"}]}}},"dtype":{"type":"DT_FLOAT"}}},
          {"name":"res2c_branch2c/convolution_bn_offset","op":"Const","attr":{"value":{"tensor":{"dtype":"DT_FLOAT","tensorShape":{"dim":[{"size":"256"}]}}},"dtype":{"type":"DT_FLOAT"}}},
          {"name":"res3a_branch2a/convolution_weights","op":"Const","attr":{"value":{"tensor":{"dtype":"DT_FLOAT","tensorShape":{"dim":[{"size":"1"},{"size":"1"},{"size":"256"},{"size":"128"}]}}},"dtype":{"type":"DT_FLOAT"}}},
          {"name":"res3a_branch2a/convolution_bn_offset","op":"Const","attr":{"value":{"tensor":{"dtype":"DT_FLOAT","tensorShape":{"dim":[{"size":"128"}]}}},"dtype":{"type":"DT_FLOAT"}}},
          {"name":"res3a_branch1/convolution_weights","op":"Const","attr":{"value":{"tensor":{"dtype":"DT_FLOAT","tensorShape":{"dim":[{"size":"1"},{"size":"1"},{"size":"256"},{"size":"512"}]}}},"dtype":{"type":"DT_FLOAT"}}},
          {"name":"res3a_branch1/convolution_bn_offset","op":"Const","attr":{"dtype":{"type":"DT_FLOAT"},"value":{"tensor":{"dtype":"DT_FLOAT","tensorShape":{"dim":[{"size":"512"}]}}}}},
          {"name":"res3a_branch2b/convolution_weights","op":"Const","attr":{"dtype":{"type":"DT_FLOAT"},"value":{"tensor":{"dtype":"DT_FLOAT","tensorShape":{"dim":[{"size":"3"},{"size":"3"},{"size":"128"},{"size":"128"}]}}}}},
          {"name":"res3a_branch2b/convolution_bn_offset","op":"Const","attr":{"value":{"tensor":{"dtype":"DT_FLOAT","tensorShape":{"dim":[{"size":"128"}]}}},"dtype":{"type":"DT_FLOAT"}}},
          {"name":"res3a_branch2c/convolution_weights","op":"Const","attr":{"value":{"tensor":{"dtype":"DT_FLOAT","tensorShape":{"dim":[{"size":"1"},{"size":"1"},{"size":"128"},{"size":"512"}]}}},"dtype":{"type":"DT_FLOAT"}}},
          {"name":"res3a_branch2c/convolution_bn_offset","op":"Const","attr":{"dtype":{"type":"DT_FLOAT"},"value":{"tensor":{"dtype":"DT_FLOAT","tensorShape":{"dim":[{"size":"512"}]}}}}},
          {"name":"res3b_branch2a/convolution_weights","op":"Const","attr":{"dtype":{"type":"DT_FLOAT"},"value":{"tensor":{"dtype":"DT_FLOAT","tensorShape":{"dim":[{"size":"1"},{"size":"1"},{"size":"512"},{"size":"128"}]}}}}},
          {"name":"res3b_branch2a/convolution_bn_offset","op":"Const","attr":{"value":{"tensor":{"dtype":"DT_FLOAT","tensorShape":{"dim":[{"size":"128"}]}}},"dtype":{"type":"DT_FLOAT"}}},
          {"name":"res3b_branch2b/convolution_weights","op":"Const","attr":{"dtype":{"type":"DT_FLOAT"},"value":{"tensor":{"dtype":"DT_FLOAT","tensorShape":{"dim":[{"size":"3"},{"size":"3"},{"size":"128"},{"size":"128"}]}}}}},
          {"name":"res3b_branch2b/convolution_bn_offset","op":"Const","attr":{"value":{"tensor":{"dtype":"DT_FLOAT","tensorShape":{"dim":[{"size":"128"}]}}},"dtype":{"type":"DT_FLOAT"}}},
          {"name":"res3b_branch2c/convolution_weights","op":"Const","attr":{"dtype":{"type":"DT_FLOAT"},"value":{"tensor":{"dtype":"DT_FLOAT","tensorShape":{"dim":[{"size":"1"},{"size":"1"},{"size":"128"},{"size":"512"}]}}}}},
          {"name":"res3b_branch2c/convolution_bn_offset","op":"Const","attr":{"value":{"tensor":{"dtype":"DT_FLOAT","tensorShape":{"dim":[{"size":"512"}]}}},"dtype":{"type":"DT_FLOAT"}}},
          {"name":"res3c_branch2a/convolution_weights","op":"Const","attr":{"dtype":{"type":"DT_FLOAT"},"value":{"tensor":{"dtype":"DT_FLOAT","tensorShape":{"dim":[{"size":"1"},{"size":"1"},{"size":"512"},{"size":"128"}]}}}}},
          {"name":"res3c_branch2a/convolution_bn_offset","op":"Const","attr":{"dtype":{"type":"DT_FLOAT"},"value":{"tensor":{"dtype":"DT_FLOAT","tensorShape":{"dim":[{"size":"128"}]}}}}},
          {"name":"res3c_branch2b/convolution_weights","op":"Const","attr":{"value":{"tensor":{"dtype":"DT_FLOAT","tensorShape":{"dim":[{"size":"3"},{"size":"3"},{"size":"128"},{"size":"128"}]}}},"dtype":{"type":"DT_FLOAT"}}},
          {"name":"res3c_branch2b/convolution_bn_offset","op":"Const","attr":{"dtype":{"type":"DT_FLOAT"},"value":{"tensor":{"dtype":"DT_FLOAT","tensorShape":{"dim":[{"size":"128"}]}}}}},
          {"name":"res3c_branch2c/convolution_weights","op":"Const","attr":{"dtype":{"type":"DT_FLOAT"},"value":{"tensor":{"dtype":"DT_FLOAT","tensorShape":{"dim":[{"size":"1"},{"size":"1"},{"size":"128"},{"size":"512"}]}}}}},
          {"name":"res3c_branch2c/convolution_bn_offset","op":"Const","attr":{"dtype":{"type":"DT_FLOAT"},"value":{"tensor":{"dtype":"DT_FLOAT","tensorShape":{"dim":[{"size":"512"}]}}}}},
          {"name":"res3d_branch2a/convolution_weights","op":"Const","attr":{"dtype":{"type":"DT_FLOAT"},"value":{"tensor":{"dtype":"DT_FLOAT","tensorShape":{"dim":[{"size":"1"},{"size":"1"},{"size":"512"},{"size":"128"}]}}}}},
          {"name":"res3d_branch2a/convolution_bn_offset","op":"Const","attr":{"value":{"tensor":{"dtype":"DT_FLOAT","tensorShape":{"dim":[{"size":"128"}]}}},"dtype":{"type":"DT_FLOAT"}}},
          {"name":"res3d_branch2b/convolution_weights","op":"Const","attr":{"value":{"tensor":{"dtype":"DT_FLOAT","tensorShape":{"dim":[{"size":"3"},{"size":"3"},{"size":"128"},{"size":"128"}]}}},"dtype":{"type":"DT_FLOAT"}}},
          {"name":"res3d_branch2b/convolution_bn_offset","op":"Const","attr":{"value":{"tensor":{"dtype":"DT_FLOAT","tensorShape":{"dim":[{"size":"128"}]}}},"dtype":{"type":"DT_FLOAT"}}},
          {"name":"res3d_branch2c/convolution_weights","op":"Const","attr":{"value":{"tensor":{"dtype":"DT_FLOAT","tensorShape":{"dim":[{"size":"1"},{"size":"1"},{"size":"128"},{"size":"512"}]}}},"dtype":{"type":"DT_FLOAT"}}},
          {"name":"res3d_branch2c/convolution_bn_offset","op":"Const","attr":{"value":{"tensor":{"dtype":"DT_FLOAT","tensorShape":{"dim":[{"size":"512"}]}}},"dtype":{"type":"DT_FLOAT"}}},
          {"name":"res4a_branch2a/convolution_weights","op":"Const","attr":{"value":{"tensor":{"dtype":"DT_FLOAT","tensorShape":{"dim":[{"size":"1"},{"size":"1"},{"size":"512"},{"size":"256"}]}}},"dtype":{"type":"DT_FLOAT"}}},
          {"name":"res4a_branch2a/convolution_bn_offset","op":"Const","attr":{"dtype":{"type":"DT_FLOAT"},"value":{"tensor":{"dtype":"DT_FLOAT","tensorShape":{"dim":[{"size":"256"}]}}}}},
          {"name":"res4a_branch1/convolution_weights","op":"Const","attr":{"dtype":{"type":"DT_FLOAT"},"value":{"tensor":{"dtype":"DT_FLOAT","tensorShape":{"dim":[{"size":"1"},{"size":"1"},{"size":"512"},{"size":"1024"}]}}}}},
          {"name":"res4a_branch1/convolution_bn_offset","op":"Const","attr":{"dtype":{"type":"DT_FLOAT"},"value":{"tensor":{"dtype":"DT_FLOAT","tensorShape":{"dim":[{"size":"1024"}]}}}}},
          {"name":"res4a_branch2b/convolution_weights","op":"Const","attr":{"dtype":{"type":"DT_FLOAT"},"value":{"tensor":{"dtype":"DT_FLOAT","tensorShape":{"dim":[{"size":"3"},{"size":"3"},{"size":"256"},{"size":"256"}]}}}}},
          {"name":"res4a_branch2b/convolution_bn_offset","op":"Const","attr":{"value":{"tensor":{"dtype":"DT_FLOAT","tensorShape":{"dim":[{"size":"256"}]}}},"dtype":{"type":"DT_FLOAT"}}},
          {"name":"res4a_branch2c/convolution_weights","op":"Const","attr":{"dtype":{"type":"DT_FLOAT"},"value":{"tensor":{"dtype":"DT_FLOAT","tensorShape":{"dim":[{"size":"1"},{"size":"1"},{"size":"256"},{"size":"1024"}]}}}}},
          {"name":"res4a_branch2c/convolution_bn_offset","op":"Const","attr":{"dtype":{"type":"DT_FLOAT"},"value":{"tensor":{"dtype":"DT_FLOAT","tensorShape":{"dim":[{"size":"1024"}]}}}}},
          {"name":"res4b_branch2a/convolution_weights","op":"Const","attr":{"value":{"tensor":{"dtype":"DT_FLOAT","tensorShape":{"dim":[{"size":"1"},{"size":"1"},{"size":"1024"},{"size":"256"}]}}},"dtype":{"type":"DT_FLOAT"}}},
          {"name":"res4b_branch2a/convolution_bn_offset","op":"Const","attr":{"dtype":{"type":"DT_FLOAT"},"value":{"tensor":{"dtype":"DT_FLOAT","tensorShape":{"dim":[{"size":"256"}]}}}}},
          {"name":"res4b_branch2b/convolution_weights","op":"Const","attr":{"dtype":{"type":"DT_FLOAT"},"value":{"tensor":{"dtype":"DT_FLOAT","tensorShape":{"dim":[{"size":"3"},{"size":"3"},{"size":"256"},{"size":"256"}]}}}}},
          {"name":"res4b_branch2b/convolution_bn_offset","op":"Const","attr":{"value":{"tensor":{"dtype":"DT_FLOAT","tensorShape":{"dim":[{"size":"256"}]}}},"dtype":{"type":"DT_FLOAT"}}},
          {"name":"res4b_branch2c/convolution_weights","op":"Const","attr":{"dtype":{"type":"DT_FLOAT"},"value":{"tensor":{"dtype":"DT_FLOAT","tensorShape":{"dim":[{"size":"1"},{"size":"1"},{"size":"256"},{"size":"1024"}]}}}}},
          {"name":"res4b_branch2c/convolution_bn_offset","op":"Const","attr":{"dtype":{"type":"DT_FLOAT"},"value":{"tensor":{"dtype":"DT_FLOAT","tensorShape":{"dim":[{"size":"1024"}]}}}}},
          {"name":"res4c_branch2a/convolution_weights","op":"Const","attr":{"dtype":{"type":"DT_FLOAT"},"value":{"tensor":{"dtype":"DT_FLOAT","tensorShape":{"dim":[{"size":"1"},{"size":"1"},{"size":"1024"},{"size":"256"}]}}}}},
          {"name":"res4c_branch2a/convolution_bn_offset","op":"Const","attr":{"value":{"tensor":{"dtype":"DT_FLOAT","tensorShape":{"dim":[{"size":"256"}]}}},"dtype":{"type":"DT_FLOAT"}}},
          {"name":"res4c_branch2b/convolution_weights","op":"Const","attr":{"dtype":{"type":"DT_FLOAT"},"value":{"tensor":{"dtype":"DT_FLOAT","tensorShape":{"dim":[{"size":"3"},{"size":"3"},{"size":"256"},{"size":"256"}]}}}}},
          {"name":"res4c_branch2b/convolution_bn_offset","op":"Const","attr":{"value":{"tensor":{"dtype":"DT_FLOAT","tensorShape":{"dim":[{"size":"256"}]}}},"dtype":{"type":"DT_FLOAT"}}},
          {"name":"res4c_branch2c/convolution_weights","op":"Const","attr":{"value":{"tensor":{"dtype":"DT_FLOAT","tensorShape":{"dim":[{"size":"1"},{"size":"1"},{"size":"256"},{"size":"1024"}]}}},"dtype":{"type":"DT_FLOAT"}}},
          {"name":"res4c_branch2c/convolution_bn_offset","op":"Const","attr":{"dtype":{"type":"DT_FLOAT"},"value":{"tensor":{"dtype":"DT_FLOAT","tensorShape":{"dim":[{"size":"1024"}]}}}}},
          {"name":"res4d_branch2a/convolution_weights","op":"Const","attr":{"dtype":{"type":"DT_FLOAT"},"value":{"tensor":{"dtype":"DT_FLOAT","tensorShape":{"dim":[{"size":"1"},{"size":"1"},{"size":"1024"},{"size":"256"}]}}}}},
          {"name":"res4d_branch2a/convolution_bn_offset","op":"Const","attr":{"value":{"tensor":{"dtype":"DT_FLOAT","tensorShape":{"dim":[{"size":"256"}]}}},"dtype":{"type":"DT_FLOAT"}}},
          {"name":"res4d_branch2b/convolution_weights","op":"Const","attr":{"dtype":{"type":"DT_FLOAT"},"value":{"tensor":{"dtype":"DT_FLOAT","tensorShape":{"dim":[{"size":"3"},{"size":"3"},{"size":"256"},{"size":"256"}]}}}}},
          {"name":"res4d_branch2b/convolution_bn_offset","op":"Const","attr":{"dtype":{"type":"DT_FLOAT"},"value":{"tensor":{"dtype":"DT_FLOAT","tensorShape":{"dim":[{"size":"256"}]}}}}},
          {"name":"res4d_branch2c/convolution_weights","op":"Const","attr":{"dtype":{"type":"DT_FLOAT"},"value":{"tensor":{"dtype":"DT_FLOAT","tensorShape":{"dim":[{"size":"1"},{"size":"1"},{"size":"256"},{"size":"1024"}]}}}}},
          {"name":"res4d_branch2c/convolution_bn_offset","op":"Const","attr":{"value":{"tensor":{"dtype":"DT_FLOAT","tensorShape":{"dim":[{"size":"1024"}]}}},"dtype":{"type":"DT_FLOAT"}}},
          {"name":"res4e_branch2a/convolution_weights","op":"Const","attr":{"value":{"tensor":{"dtype":"DT_FLOAT","tensorShape":{"dim":[{"size":"1"},{"size":"1"},{"size":"1024"},{"size":"256"}]}}},"dtype":{"type":"DT_FLOAT"}}},
          {"name":"res4e_branch2a/convolution_bn_offset","op":"Const","attr":{"value":{"tensor":{"dtype":"DT_FLOAT","tensorShape":{"dim":[{"size":"256"}]}}},"dtype":{"type":"DT_FLOAT"}}},
          {"name":"res4e_branch2b/convolution_weights","op":"Const","attr":{"dtype":{"type":"DT_FLOAT"},"value":{"tensor":{"dtype":"DT_FLOAT","tensorShape":{"dim":[{"size":"3"},{"size":"3"},{"size":"256"},{"size":"256"}]}}}}},
          {"name":"res4e_branch2b/convolution_bn_offset","op":"Const","attr":{"dtype":{"type":"DT_FLOAT"},"value":{"tensor":{"dtype":"DT_FLOAT","tensorShape":{"dim":[{"size":"256"}]}}}}},
          {"name":"res4e_branch2c/convolution_weights","op":"Const","attr":{"value":{"tensor":{"dtype":"DT_FLOAT","tensorShape":{"dim":[{"size":"1"},{"size":"1"},{"size":"256"},{"size":"1024"}]}}},"dtype":{"type":"DT_FLOAT"}}},
          {"name":"res4e_branch2c/convolution_bn_offset","op":"Const","attr":{"dtype":{"type":"DT_FLOAT"},"value":{"tensor":{"dtype":"DT_FLOAT","tensorShape":{"dim":[{"size":"1024"}]}}}}},
          {"name":"res4f_branch2a/convolution_weights","op":"Const","attr":{"value":{"tensor":{"dtype":"DT_FLOAT","tensorShape":{"dim":[{"size":"1"},{"size":"1"},{"size":"1024"},{"size":"256"}]}}},"dtype":{"type":"DT_FLOAT"}}},
          {"name":"res4f_branch2a/convolution_bn_offset","op":"Const","attr":{"value":{"tensor":{"dtype":"DT_FLOAT","tensorShape":{"dim":[{"size":"256"}]}}},"dtype":{"type":"DT_FLOAT"}}},
          {"name":"res4f_branch2b/convolution_weights","op":"Const","attr":{"dtype":{"type":"DT_FLOAT"},"value":{"tensor":{"dtype":"DT_FLOAT","tensorShape":{"dim":[{"size":"3"},{"size":"3"},{"size":"256"},{"size":"256"}]}}}}},
          {"name":"res4f_branch2b/convolution_bn_offset","op":"Const","attr":{"value":{"tensor":{"dtype":"DT_FLOAT","tensorShape":{"dim":[{"size":"256"}]}}},"dtype":{"type":"DT_FLOAT"}}},
          {"name":"res4f_branch2c/convolution_weights","op":"Const","attr":{"dtype":{"type":"DT_FLOAT"},"value":{"tensor":{"dtype":"DT_FLOAT","tensorShape":{"dim":[{"size":"1"},{"size":"1"},{"size":"256"},{"size":"1024"}]}}}}},
          {"name":"res4f_branch2c/convolution_bn_offset","op":"Const","attr":{"dtype":{"type":"DT_FLOAT"},"value":{"tensor":{"dtype":"DT_FLOAT","tensorShape":{"dim":[{"size":"1024"}]}}}}},
          {"name":"res5a_branch2a/convolution_weights","op":"Const","attr":{"dtype":{"type":"DT_FLOAT"},"value":{"tensor":{"dtype":"DT_FLOAT","tensorShape":{"dim":[{"size":"1"},{"size":"1"},{"size":"1024"},{"size":"512"}]}}}}},
          {"name":"res5a_branch2a/convolution_bn_offset","op":"Const","attr":{"value":{"tensor":{"dtype":"DT_FLOAT","tensorShape":{"dim":[{"size":"512"}]}}},"dtype":{"type":"DT_FLOAT"}}},
          {"name":"res5a_branch1/convolution_weights","op":"Const","attr":{"dtype":{"type":"DT_FLOAT"},"value":{"tensor":{"dtype":"DT_FLOAT","tensorShape":{"dim":[{"size":"1"},{"size":"1"},{"size":"1024"},{"size":"2048"}]}}}}},
          {"name":"res5a_branch1/convolution_bn_offset","op":"Const","attr":{"dtype":{"type":"DT_FLOAT"},"value":{"tensor":{"dtype":"DT_FLOAT","tensorShape":{"dim":[{"size":"2048"}]}}}}},
          {"name":"res5a_branch2b/convolution_weights","op":"Const","attr":{"value":{"tensor":{"dtype":"DT_FLOAT","tensorShape":{"dim":[{"size":"3"},{"size":"3"},{"size":"512"},{"size":"512"}]}}},"dtype":{"type":"DT_FLOAT"}}},
          {"name":"res5a_branch2b/convolution_bn_offset","op":"Const","attr":{"value":{"tensor":{"dtype":"DT_FLOAT","tensorShape":{"dim":[{"size":"512"}]}}},"dtype":{"type":"DT_FLOAT"}}},
          {"name":"res5a_branch2c/convolution_weights","op":"Const","attr":{"dtype":{"type":"DT_FLOAT"},"value":{"tensor":{"dtype":"DT_FLOAT","tensorShape":{"dim":[{"size":"1"},{"size":"1"},{"size":"512"},{"size":"2048"}]}}}}},
          {"name":"res5a_branch2c/convolution_bn_offset","op":"Const","attr":{"dtype":{"type":"DT_FLOAT"},"value":{"tensor":{"dtype":"DT_FLOAT","tensorShape":{"dim":[{"size":"2048"}]}}}}},
          {"name":"res5b_branch2a/convolution_weights","op":"Const","attr":{"dtype":{"type":"DT_FLOAT"},"value":{"tensor":{"dtype":"DT_FLOAT","tensorShape":{"dim":[{"size":"1"},{"size":"1"},{"size":"2048"},{"size":"512"}]}}}}},
          {"name":"res5b_branch2a/convolution_bn_offset","op":"Const","attr":{"value":{"tensor":{"dtype":"DT_FLOAT","tensorShape":{"dim":[{"size":"512"}]}}},"dtype":{"type":"DT_FLOAT"}}},
          {"name":"res5b_branch2b/convolution_weights","op":"Const","attr":{"dtype":{"type":"DT_FLOAT"},"value":{"tensor":{"dtype":"DT_FLOAT","tensorShape":{"dim":[{"size":"3"},{"size":"3"},{"size":"512"},{"size":"512"}]}}}}},
          {"name":"res5b_branch2b/convolution_bn_offset","op":"Const","attr":{"value":{"tensor":{"dtype":"DT_FLOAT","tensorShape":{"dim":[{"size":"512"}]}}},"dtype":{"type":"DT_FLOAT"}}},
          {"name":"res5b_branch2c/convolution_weights","op":"Const","attr":{"value":{"tensor":{"dtype":"DT_FLOAT","tensorShape":{"dim":[{"size":"1"},{"size":"1"},{"size":"512"},{"size":"2048"}]}}},"dtype":{"type":"DT_FLOAT"}}},
          {"name":"res5b_branch2c/convolution_bn_offset","op":"Const","attr":{"dtype":{"type":"DT_FLOAT"},"value":{"tensor":{"dtype":"DT_FLOAT","tensorShape":{"dim":[{"size":"2048"}]}}}}},
          {"name":"res5c_branch2a/convolution_weights","op":"Const","attr":{"value":{"tensor":{"dtype":"DT_FLOAT","tensorShape":{"dim":[{"size":"1"},{"size":"1"},{"size":"2048"},{"size":"512"}]}}},"dtype":{"type":"DT_FLOAT"}}},
          {"name":"res5c_branch2a/convolution_bn_offset","op":"Const","attr":{"dtype":{"type":"DT_FLOAT"},"value":{"tensor":{"dtype":"DT_FLOAT","tensorShape":{"dim":[{"size":"512"}]}}}}},
          {"name":"res5c_branch2b/convolution_weights","op":"Const","attr":{"dtype":{"type":"DT_FLOAT"},"value":{"tensor":{"dtype":"DT_FLOAT","tensorShape":{"dim":[{"size":"3"},{"size":"3"},{"size":"512"},{"size":"512"}]}}}}},
          {"name":"res5c_branch2b/convolution_bn_offset","op":"Const","attr":{"value":{"tensor":{"dtype":"DT_FLOAT","tensorShape":{"dim":[{"size":"512"}]}}},"dtype":{"type":"DT_FLOAT"}}},
          {"name":"res5c_branch2c/convolution_weights","op":"Const","attr":{"dtype":{"type":"DT_FLOAT"},"value":{"tensor":{"dtype":"DT_FLOAT","tensorShape":{"dim":[{"size":"1"},{"size":"1"},{"size":"512"},{"size":"2048"}]}}}}},
          {"name":"res5c_branch2c/convolution_bn_offset","op":"Const","attr":{"dtype":{"type":"DT_FLOAT"},"value":{"tensor":{"dtype":"DT_FLOAT","tensorShape":{"dim":[{"size":"2048"}]}}}}},
          {"name":"filtered_detections/map/while/Enter_1","op":"Enter","input":["filtered_detections/map/Const"],"attr":{"frame_name":{"s":"ZmlsdGVyZWRfZGV0ZWN0aW9ucy9tYXAvd2hpbGUvd2hpbGVfY29udGV4dA=="},"is_constant":{"b":false},"T":{"type":"DT_INT32"},"parallel_iterations":{"i":"32"}}},
          {"name":"filtered_detections/map/while/Enter","op":"Enter","input":["filtered_detections/map/while/iteration_counter"],"attr":{"frame_name":{"s":"ZmlsdGVyZWRfZGV0ZWN0aW9ucy9tYXAvd2hpbGUvd2hpbGVfY29udGV4dA=="},"parallel_iterations":{"i":"32"},"is_constant":{"b":false},"T":{"type":"DT_INT32"}}},
          {"name":"padding_conv1/Pad","op":"Pad","input":["input_1","padding_conv1/Pad/paddings"],"attr":{"Tpaddings":{"type":"DT_INT32"},"T":{"type":"DT_FLOAT"}}},
          {"name":"clipped_boxes/Shape","op":"Shape","input":["input_1"],"attr":{"T":{"type":"DT_FLOAT"},"out_type":{"type":"DT_INT32"}}},
          {"name":"filtered_detections/map/while/Merge_1","op":"Merge","input":["filtered_detections/map/while/Enter_1","filtered_detections/map/while/NextIteration_1"],"attr":{"T":{"type":"DT_INT32"},"N":{"i":"2"}}},
          {"name":"filtered_detections/map/while/Merge","op":"Merge","input":["filtered_detections/map/while/Enter","filtered_detections/map/while/NextIteration"],"attr":{"N":{"i":"2"},"T":{"type":"DT_INT32"}}},
          {"name":"conv1_relu/Relu","op":"_FusedConv2D","input":["padding_conv1/Pad","conv1/convolution_weights","conv1/convolution_bn_offset"],"device":"/device:CPU:0","attr":{"padding":{"s":"VkFMSUQ="},"TArgs":{"list":{"type":["DT_FLOAT"]}},"strides":{"list":{"i":["1","2","2","1"]}},"T":{"type":"DT_FLOAT"},"fused_ops":{"list":{"s":["Qmlhc0FkZA==","UmVsdQ=="]}},"filter_format":{"s":"SFdJTw=="},"explicit_paddings":{"list":{}},"num_args":{"i":"1"},"data_format":{"s":"TkhXQw=="},"dilations":{"list":{"i":["1","1","1","1"]}},"use_cudnn_on_gpu":{"b":true},"epsilon":{"f":0},"num_host_args":{"i":"0"},"leakyrelu_alpha":{"f":0.2}}},
          {"name":"clipped_boxes/Cast","op":"Cast","input":["clipped_boxes/Shape"],"attr":{"SrcT":{"type":"DT_INT32"},"DstT":{"type":"DT_FLOAT"},"Truncate":{"b":false}}},
          {"name":"pool1/MaxPool","op":"MaxPool","input":["conv1_relu/Relu"],"attr":{"data_format":{"s":"TkhXQw=="},"explicit_paddings":{"list":{}},"strides":{"list":{"i":["1","2","2","1"]}},"padding":{"s":"U0FNRQ=="},"T":{"type":"DT_FLOAT"},"ksize":{"list":{"i":["1","3","3","1"]}}}},
          {"name":"clipped_boxes/unstack","op":"Unpack","input":["clipped_boxes/Cast"],"attr":{"axis":{"i":"0"},"T":{"type":"DT_FLOAT"},"num":{"i":"4"}}},
          {"name":"res2a_branch2a_relu/Relu","op":"_FusedConv2D","input":["pool1/MaxPool","res2a_branch2a/convolution_weights","res2a_branch2a/convolution_bn_offset"],"device":"/device:CPU:0","attr":{"dilations":{"list":{"i":["1","1","1","1"]}},"TArgs":{"list":{"type":["DT_FLOAT"]}},"T":{"type":"DT_FLOAT"},"use_cudnn_on_gpu":{"b":true},"filter_format":{"s":"SFdJTw=="},"epsilon":{"f":0},"fused_ops":{"list":{"s":["Qmlhc0FkZA==","UmVsdQ=="]}},"strides":{"list":{"i":["1","1","1","1"]}},"explicit_paddings":{"list":{}},"padding":{"s":"VkFMSUQ="},"leakyrelu_alpha":{"f":0.2},"num_host_args":{"i":"0"},"num_args":{"i":"1"},"data_format":{"s":"TkhXQw=="}}},
          {"name":"bn2a_branch1/FusedBatchNormV3","op":"_FusedConv2D","input":["pool1/MaxPool","res2a_branch1/convolution_weights","res2a_branch1/convolution_bn_offset"],"device":"/device:CPU:0","attr":{"num_host_args":{"i":"0"},"strides":{"list":{"i":["1","1","1","1"]}},"data_format":{"s":"TkhXQw=="},"leakyrelu_alpha":{"f":0.2},"epsilon":{"f":0},"fused_ops":{"list":{"s":["Qmlhc0FkZA=="]}},"T":{"type":"DT_FLOAT"},"padding":{"s":"VkFMSUQ="},"dilations":{"list":{"i":["1","1","1","1"]}},"TArgs":{"list":{"type":["DT_FLOAT"]}},"num_args":{"i":"1"},"explicit_paddings":{"list":{}},"use_cudnn_on_gpu":{"b":true},"filter_format":{"s":"SFdJTw=="}}},
          {"name":"clipped_boxes/sub_1","op":"Sub","input":["clipped_boxes/unstack:1","clipped_boxes/sub_1/y"],"attr":{"T":{"type":"DT_FLOAT"}}},
          {"name":"clipped_boxes/sub_3","op":"Sub","input":["clipped_boxes/unstack:1","clipped_boxes/sub_3/y"],"attr":{"T":{"type":"DT_FLOAT"}}},
          {"name":"clipped_boxes/sub","op":"Sub","input":["clipped_boxes/unstack:2","clipped_boxes/sub/y"],"attr":{"T":{"type":"DT_FLOAT"}}},
          {"name":"clipped_boxes/sub_2","op":"Sub","input":["clipped_boxes/unstack:2","clipped_boxes/sub_2/y"],"attr":{"T":{"type":"DT_FLOAT"}}},
          {"name":"padding2a_branch2b/Pad","op":"Pad","input":["res2a_branch2a_relu/Relu","padding2a_branch2b/Pad/paddings"],"attr":{"Tpaddings":{"type":"DT_INT32"},"T":{"type":"DT_FLOAT"}}},
          {"name":"res2a_branch2b_relu/Relu","op":"_FusedConv2D","input":["padding2a_branch2b/Pad","res2a_branch2b/convolution_weights","res2a_branch2b/convolution_bn_offset"],"device":"/device:CPU:0","attr":{"leakyrelu_alpha":{"f":0.2},"strides":{"list":{"i":["1","1","1","1"]}},"filter_format":{"s":"SFdJTw=="},"dilations":{"list":{"i":["1","1","1","1"]}},"TArgs":{"list":{"type":["DT_FLOAT"]}},"fused_ops":{"list":{"s":["Qmlhc0FkZA==","UmVsdQ=="]}},"T":{"type":"DT_FLOAT"},"explicit_paddings":{"list":{}},"num_host_args":{"i":"0"},"data_format":{"s":"TkhXQw=="},"use_cudnn_on_gpu":{"b":true},"epsilon":{"f":0},"padding":{"s":"VkFMSUQ="},"num_args":{"i":"1"}}},
          {"name":"bn2a_branch2c/FusedBatchNormV3","op":"_FusedConv2D","input":["res2a_branch2b_relu/Relu","res2a_branch2c/convolution_weights","res2a_branch2c/convolution_bn_offset"],"device":"/device:CPU:0","attr":{"dilations":{"list":{"i":["1","1","1","1"]}},"explicit_paddings":{"list":{}},"strides":{"list":{"i":["1","1","1","1"]}},"use_cudnn_on_gpu":{"b":true},"padding":{"s":"VkFMSUQ="},"leakyrelu_alpha":{"f":0.2},"fused_ops":{"list":{"s":["Qmlhc0FkZA=="]}},"num_args":{"i":"1"},"epsilon":{"f":0},"num_host_args":{"i":"0"},"TArgs":{"list":{"type":["DT_FLOAT"]}},"T":{"type":"DT_FLOAT"},"filter_format":{"s":"SFdJTw=="},"data_format":{"s":"TkhXQw=="}}},
          {"name":"res2a/add","op":"AddV2","input":["bn2a_branch2c/FusedBatchNormV3","bn2a_branch1/FusedBatchNormV3"],"attr":{"T":{"type":"DT_FLOAT"}}},
          {"name":"res2a_relu/Relu","op":"Relu","input":["res2a/add"],"attr":{"T":{"type":"DT_FLOAT"}}},
          {"name":"res2b_branch2a_relu/Relu","op":"_FusedConv2D","input":["res2a_relu/Relu","res2b_branch2a/convolution_weights","res2b_branch2a/convolution_bn_offset"],"device":"/device:CPU:0","attr":{"num_args":{"i":"1"},"num_host_args":{"i":"0"},"use_cudnn_on_gpu":{"b":true},"data_format":{"s":"TkhXQw=="},"dilations":{"list":{"i":["1","1","1","1"]}},"filter_format":{"s":"SFdJTw=="},"explicit_paddings":{"list":{}},"padding":{"s":"VkFMSUQ="},"epsilon":{"f":0},"strides":{"list":{"i":["1","1","1","1"]}},"leakyrelu_alpha":{"f":0.2},"T":{"type":"DT_FLOAT"},"fused_ops":{"list":{"s":["Qmlhc0FkZA==","UmVsdQ=="]}},"TArgs":{"list":{"type":["DT_FLOAT"]}}}},
          {"name":"padding2b_branch2b/Pad","op":"Pad","input":["res2b_branch2a_relu/Relu","padding2b_branch2b/Pad/paddings"],"attr":{"T":{"type":"DT_FLOAT"},"Tpaddings":{"type":"DT_INT32"}}},
          {"name":"res2b_branch2b_relu/Relu","op":"_FusedConv2D","input":["padding2b_branch2b/Pad","res2b_branch2b/convolution_weights","res2b_branch2b/convolution_bn_offset"],"device":"/device:CPU:0","attr":{"explicit_paddings":{"list":{}},"epsilon":{"f":0},"strides":{"list":{"i":["1","1","1","1"]}},"leakyrelu_alpha":{"f":0.2},"use_cudnn_on_gpu":{"b":true},"data_format":{"s":"TkhXQw=="},"num_host_args":{"i":"0"},"padding":{"s":"VkFMSUQ="},"fused_ops":{"list":{"s":["Qmlhc0FkZA==","UmVsdQ=="]}},"T":{"type":"DT_FLOAT"},"TArgs":{"list":{"type":["DT_FLOAT"]}},"num_args":{"i":"1"},"dilations":{"list":{"i":["1","1","1","1"]}},"filter_format":{"s":"SFdJTw=="}}},
          {"name":"bn2b_branch2c/FusedBatchNormV3","op":"_FusedConv2D","input":["res2b_branch2b_relu/Relu","res2b_branch2c/convolution_weights","res2b_branch2c/convolution_bn_offset"],"device":"/device:CPU:0","attr":{"explicit_paddings":{"list":{}},"num_args":{"i":"1"},"filter_format":{"s":"SFdJTw=="},"num_host_args":{"i":"0"},"leakyrelu_alpha":{"f":0.2},"use_cudnn_on_gpu":{"b":true},"epsilon":{"f":0},"T":{"type":"DT_FLOAT"},"padding":{"s":"VkFMSUQ="},"TArgs":{"list":{"type":["DT_FLOAT"]}},"fused_ops":{"list":{"s":["Qmlhc0FkZA=="]}},"data_format":{"s":"TkhXQw=="},"strides":{"list":{"i":["1","1","1","1"]}},"dilations":{"list":{"i":["1","1","1","1"]}}}},
          {"name":"res2b/add","op":"AddV2","input":["bn2b_branch2c/FusedBatchNormV3","res2a_relu/Relu"],"attr":{"T":{"type":"DT_FLOAT"}}},
          {"name":"res2b_relu/Relu","op":"Relu","input":["res2b/add"],"attr":{"T":{"type":"DT_FLOAT"}}},
          {"name":"res2c_branch2a_relu/Relu","op":"_FusedConv2D","input":["res2b_relu/Relu","res2c_branch2a/convolution_weights","res2c_branch2a/convolution_bn_offset"],"device":"/device:CPU:0","attr":{"use_cudnn_on_gpu":{"b":true},"strides":{"list":{"i":["1","1","1","1"]}},"num_host_args":{"i":"0"},"padding":{"s":"VkFMSUQ="},"data_format":{"s":"TkhXQw=="},"TArgs":{"list":{"type":["DT_FLOAT"]}},"explicit_paddings":{"list":{}},"epsilon":{"f":0},"fused_ops":{"list":{"s":["Qmlhc0FkZA==","UmVsdQ=="]}},"dilations":{"list":{"i":["1","1","1","1"]}},"filter_format":{"s":"SFdJTw=="},"T":{"type":"DT_FLOAT"},"num_args":{"i":"1"},"leakyrelu_alpha":{"f":0.2}}},
          {"name":"padding2c_branch2b/Pad","op":"Pad","input":["res2c_branch2a_relu/Relu","padding2c_branch2b/Pad/paddings"],"attr":{"T":{"type":"DT_FLOAT"},"Tpaddings":{"type":"DT_INT32"}}},
          {"name":"res2c_branch2b_relu/Relu","op":"_FusedConv2D","input":["padding2c_branch2b/Pad","res2c_branch2b/convolution_weights","res2c_branch2b/convolution_bn_offset"],"device":"/device:CPU:0","attr":{"leakyrelu_alpha":{"f":0.2},"epsilon":{"f":0},"padding":{"s":"VkFMSUQ="},"filter_format":{"s":"SFdJTw=="},"explicit_paddings":{"list":{}},"data_format":{"s":"TkhXQw=="},"T":{"type":"DT_FLOAT"},"num_args":{"i":"1"},"fused_ops":{"list":{"s":["Qmlhc0FkZA==","UmVsdQ=="]}},"TArgs":{"list":{"type":["DT_FLOAT"]}},"num_host_args":{"i":"0"},"strides":{"list":{"i":["1","1","1","1"]}},"dilations":{"list":{"i":["1","1","1","1"]}},"use_cudnn_on_gpu":{"b":true}}},
          {"name":"bn2c_branch2c/FusedBatchNormV3","op":"_FusedConv2D","input":["res2c_branch2b_relu/Relu","res2c_branch2c/convolution_weights","res2c_branch2c/convolution_bn_offset"],"device":"/device:CPU:0","attr":{"use_cudnn_on_gpu":{"b":true},"data_format":{"s":"TkhXQw=="},"leakyrelu_alpha":{"f":0.2},"filter_format":{"s":"SFdJTw=="},"fused_ops":{"list":{"s":["Qmlhc0FkZA=="]}},"T":{"type":"DT_FLOAT"},"strides":{"list":{"i":["1","1","1","1"]}},"num_args":{"i":"1"},"num_host_args":{"i":"0"},"dilations":{"list":{"i":["1","1","1","1"]}},"epsilon":{"f":0},"padding":{"s":"VkFMSUQ="},"explicit_paddings":{"list":{}},"TArgs":{"list":{"type":["DT_FLOAT"]}}}},
          {"name":"res2c/add","op":"AddV2","input":["bn2c_branch2c/FusedBatchNormV3","res2b_relu/Relu"],"attr":{"T":{"type":"DT_FLOAT"}}},
          {"name":"res2c_relu/Relu","op":"Relu","input":["res2c/add"],"attr":{"T":{"type":"DT_FLOAT"}}},
          {"name":"res3a_branch2a_relu/Relu","op":"_FusedConv2D","input":["res2c_relu/Relu","res3a_branch2a/convolution_weights","res3a_branch2a/convolution_bn_offset"],"device":"/device:CPU:0","attr":{"epsilon":{"f":0},"leakyrelu_alpha":{"f":0.2},"explicit_paddings":{"list":{}},"use_cudnn_on_gpu":{"b":true},"strides":{"list":{"i":["1","2","2","1"]}},"TArgs":{"list":{"type":["DT_FLOAT"]}},"num_host_args":{"i":"0"},"fused_ops":{"list":{"s":["Qmlhc0FkZA==","UmVsdQ=="]}},"num_args":{"i":"1"},"dilations":{"list":{"i":["1","1","1","1"]}},"filter_format":{"s":"SFdJTw=="},"data_format":{"s":"TkhXQw=="},"padding":{"s":"VkFMSUQ="},"T":{"type":"DT_FLOAT"}}},
          {"name":"bn3a_branch1/FusedBatchNormV3","op":"_FusedConv2D","input":["res2c_relu/Relu","res3a_branch1/convolution_weights","res3a_branch1/convolution_bn_offset"],"device":"/device:CPU:0","attr":{"T":{"type":"DT_FLOAT"},"strides":{"list":{"i":["1","2","2","1"]}},"data_format":{"s":"TkhXQw=="},"epsilon":{"f":0},"leakyrelu_alpha":{"f":0.2},"fused_ops":{"list":{"s":["Qmlhc0FkZA=="]}},"explicit_paddings":{"list":{}},"num_args":{"i":"1"},"filter_format":{"s":"SFdJTw=="},"padding":{"s":"VkFMSUQ="},"use_cudnn_on_gpu":{"b":true},"TArgs":{"list":{"type":["DT_FLOAT"]}},"num_host_args":{"i":"0"},"dilations":{"list":{"i":["1","1","1","1"]}}}},
          {"name":"padding3a_branch2b/Pad","op":"Pad","input":["res3a_branch2a_relu/Relu","padding3a_branch2b/Pad/paddings"],"attr":{"T":{"type":"DT_FLOAT"},"Tpaddings":{"type":"DT_INT32"}}},
          {"name":"res3a_branch2b_relu/Relu","op":"_FusedConv2D","input":["padding3a_branch2b/Pad","res3a_branch2b/convolution_weights","res3a_branch2b/convolution_bn_offset"],"device":"/device:CPU:0","attr":{"padding":{"s":"VkFMSUQ="},"T":{"type":"DT_FLOAT"},"strides":{"list":{"i":["1","1","1","1"]}},"num_args":{"i":"1"},"epsilon":{"f":0},"dilations":{"list":{"i":["1","1","1","1"]}},"data_format":{"s":"TkhXQw=="},"filter_format":{"s":"SFdJTw=="},"num_host_args":{"i":"0"},"use_cudnn_on_gpu":{"b":true},"explicit_paddings":{"list":{}},"TArgs":{"list":{"type":["DT_FLOAT"]}},"fused_ops":{"list":{"s":["Qmlhc0FkZA==","UmVsdQ=="]}},"leakyrelu_alpha":{"f":0.2}}},
          {"name":"bn3a_branch2c/FusedBatchNormV3","op":"_FusedConv2D","input":["res3a_branch2b_relu/Relu","res3a_branch2c/convolution_weights","res3a_branch2c/convolution_bn_offset"],"device":"/device:CPU:0","attr":{"leakyrelu_alpha":{"f":0.2},"use_cudnn_on_gpu":{"b":true},"dilations":{"list":{"i":["1","1","1","1"]}},"padding":{"s":"VkFMSUQ="},"num_host_args":{"i":"0"},"explicit_paddings":{"list":{}},"data_format":{"s":"TkhXQw=="},"filter_format":{"s":"SFdJTw=="},"fused_ops":{"list":{"s":["Qmlhc0FkZA=="]}},"TArgs":{"list":{"type":["DT_FLOAT"]}},"num_args":{"i":"1"},"T":{"type":"DT_FLOAT"},"strides":{"list":{"i":["1","1","1","1"]}},"epsilon":{"f":0}}},
          {"name":"res3a/add","op":"AddV2","input":["bn3a_branch2c/FusedBatchNormV3","bn3a_branch1/FusedBatchNormV3"],"attr":{"T":{"type":"DT_FLOAT"}}},
          {"name":"res3a_relu/Relu","op":"Relu","input":["res3a/add"],"attr":{"T":{"type":"DT_FLOAT"}}},
          {"name":"res3b_branch2a_relu/Relu","op":"_FusedConv2D","input":["res3a_relu/Relu","res3b_branch2a/convolution_weights","res3b_branch2a/convolution_bn_offset"],"device":"/device:CPU:0","attr":{"epsilon":{"f":0},"T":{"type":"DT_FLOAT"},"use_cudnn_on_gpu":{"b":true},"explicit_paddings":{"list":{}},"num_args":{"i":"1"},"TArgs":{"list":{"type":["DT_FLOAT"]}},"data_format":{"s":"TkhXQw=="},"fused_ops":{"list":{"s":["Qmlhc0FkZA==","UmVsdQ=="]}},"padding":{"s":"VkFMSUQ="},"leakyrelu_alpha":{"f":0.2},"dilations":{"list":{"i":["1","1","1","1"]}},"num_host_args":{"i":"0"},"filter_format":{"s":"SFdJTw=="},"strides":{"list":{"i":["1","1","1","1"]}}}},
          {"name":"padding3b_branch2b/Pad","op":"Pad","input":["res3b_branch2a_relu/Relu","padding3b_branch2b/Pad/paddings"],"attr":{"Tpaddings":{"type":"DT_INT32"},"T":{"type":"DT_FLOAT"}}},
          {"name":"res3b_branch2b_relu/Relu","op":"_FusedConv2D","input":["padding3b_branch2b/Pad","res3b_branch2b/convolution_weights","res3b_branch2b/convolution_bn_offset"],"device":"/device:CPU:0","attr":{"epsilon":{"f":0},"fused_ops":{"list":{"s":["Qmlhc0FkZA==","UmVsdQ=="]}},"padding":{"s":"VkFMSUQ="},"use_cudnn_on_gpu":{"b":true},"T":{"type":"DT_FLOAT"},"filter_format":{"s":"SFdJTw=="},"leakyrelu_alpha":{"f":0.2},"dilations":{"list":{"i":["1","1","1","1"]}},"data_format":{"s":"TkhXQw=="},"num_args":{"i":"1"},"explicit_paddings":{"list":{}},"num_host_args":{"i":"0"},"strides":{"list":{"i":["1","1","1","1"]}},"TArgs":{"list":{"type":["DT_FLOAT"]}}}},
          {"name":"bn3b_branch2c/FusedBatchNormV3","op":"_FusedConv2D","input":["res3b_branch2b_relu/Relu","res3b_branch2c/convolution_weights","res3b_branch2c/convolution_bn_offset"],"device":"/device:CPU:0","attr":{"epsilon":{"f":0},"leakyrelu_alpha":{"f":0.2},"padding":{"s":"VkFMSUQ="},"T":{"type":"DT_FLOAT"},"use_cudnn_on_gpu":{"b":true},"explicit_paddings":{"list":{}},"fused_ops":{"list":{"s":["Qmlhc0FkZA=="]}},"TArgs":{"list":{"type":["DT_FLOAT"]}},"dilations":{"list":{"i":["1","1","1","1"]}},"filter_format":{"s":"SFdJTw=="},"num_args":{"i":"1"},"data_format":{"s":"TkhXQw=="},"num_host_args":{"i":"0"},"strides":{"list":{"i":["1","1","1","1"]}}}},
          {"name":"res3b/add","op":"AddV2","input":["bn3b_branch2c/FusedBatchNormV3","res3a_relu/Relu"],"attr":{"T":{"type":"DT_FLOAT"}}},
          {"name":"res3b_relu/Relu","op":"Relu","input":["res3b/add"],"attr":{"T":{"type":"DT_FLOAT"}}},
          {"name":"res3c_branch2a_relu/Relu","op":"_FusedConv2D","input":["res3b_relu/Relu","res3c_branch2a/convolution_weights","res3c_branch2a/convolution_bn_offset"],"device":"/device:CPU:0","attr":{"epsilon":{"f":0},"num_args":{"i":"1"},"strides":{"list":{"i":["1","1","1","1"]}},"TArgs":{"list":{"type":["DT_FLOAT"]}},"leakyrelu_alpha":{"f":0.2},"T":{"type":"DT_FLOAT"},"dilations":{"list":{"i":["1","1","1","1"]}},"explicit_paddings":{"list":{}},"use_cudnn_on_gpu":{"b":true},"padding":{"s":"VkFMSUQ="},"num_host_args":{"i":"0"},"filter_format":{"s":"SFdJTw=="},"fused_ops":{"list":{"s":["Qmlhc0FkZA==","UmVsdQ=="]}},"data_format":{"s":"TkhXQw=="}}},
          {"name":"padding3c_branch2b/Pad","op":"Pad","input":["res3c_branch2a_relu/Relu","padding3c_branch2b/Pad/paddings"],"attr":{"Tpaddings":{"type":"DT_INT32"},"T":{"type":"DT_FLOAT"}}},
          {"name":"res3c_branch2b_relu/Relu","op":"_FusedConv2D","input":["padding3c_branch2b/Pad","res3c_branch2b/convolution_weights","res3c_branch2b/convolution_bn_offset"],"device":"/device:CPU:0","attr":{"T":{"type":"DT_FLOAT"},"num_host_args":{"i":"0"},"TArgs":{"list":{"type":["DT_FLOAT"]}},"fused_ops":{"list":{"s":["Qmlhc0FkZA==","UmVsdQ=="]}},"explicit_paddings":{"list":{}},"use_cudnn_on_gpu":{"b":true},"data_format":{"s":"TkhXQw=="},"padding":{"s":"VkFMSUQ="},"num_args":{"i":"1"},"filter_format":{"s":"SFdJTw=="},"leakyrelu_alpha":{"f":0.2},"epsilon":{"f":0},"dilations":{"list":{"i":["1","1","1","1"]}},"strides":{"list":{"i":["1","1","1","1"]}}}},
          {"name":"bn3c_branch2c/FusedBatchNormV3","op":"_FusedConv2D","input":["res3c_branch2b_relu/Relu","res3c_branch2c/convolution_weights","res3c_branch2c/convolution_bn_offset"],"device":"/device:CPU:0","attr":{"dilations":{"list":{"i":["1","1","1","1"]}},"padding":{"s":"VkFMSUQ="},"T":{"type":"DT_FLOAT"},"epsilon":{"f":0},"TArgs":{"list":{"type":["DT_FLOAT"]}},"use_cudnn_on_gpu":{"b":true},"leakyrelu_alpha":{"f":0.2},"filter_format":{"s":"SFdJTw=="},"num_args":{"i":"1"},"explicit_paddings":{"list":{}},"fused_ops":{"list":{"s":["Qmlhc0FkZA=="]}},"strides":{"list":{"i":["1","1","1","1"]}},"data_format":{"s":"TkhXQw=="},"num_host_args":{"i":"0"}}},
          {"name":"res3c/add","op":"AddV2","input":["bn3c_branch2c/FusedBatchNormV3","res3b_relu/Relu"],"attr":{"T":{"type":"DT_FLOAT"}}},
          {"name":"res3c_relu/Relu","op":"Relu","input":["res3c/add"],"attr":{"T":{"type":"DT_FLOAT"}}},
          {"name":"res3d_branch2a_relu/Relu","op":"_FusedConv2D","input":["res3c_relu/Relu","res3d_branch2a/convolution_weights","res3d_branch2a/convolution_bn_offset"],"device":"/device:CPU:0","attr":{"filter_format":{"s":"SFdJTw=="},"dilations":{"list":{"i":["1","1","1","1"]}},"TArgs":{"list":{"type":["DT_FLOAT"]}},"use_cudnn_on_gpu":{"b":true},"strides":{"list":{"i":["1","1","1","1"]}},"padding":{"s":"VkFMSUQ="},"fused_ops":{"list":{"s":["Qmlhc0FkZA==","UmVsdQ=="]}},"T":{"type":"DT_FLOAT"},"data_format":{"s":"TkhXQw=="},"num_host_args":{"i":"0"},"epsilon":{"f":0},"num_args":{"i":"1"},"explicit_paddings":{"list":{}},"leakyrelu_alpha":{"f":0.2}}},
          {"name":"padding3d_branch2b/Pad","op":"Pad","input":["res3d_branch2a_relu/Relu","padding3d_branch2b/Pad/paddings"],"attr":{"T":{"type":"DT_FLOAT"},"Tpaddings":{"type":"DT_INT32"}}},
          {"name":"res3d_branch2b_relu/Relu","op":"_FusedConv2D","input":["padding3d_branch2b/Pad","res3d_branch2b/convolution_weights","res3d_branch2b/convolution_bn_offset"],"device":"/device:CPU:0","attr":{"fused_ops":{"list":{"s":["Qmlhc0FkZA==","UmVsdQ=="]}},"dilations":{"list":{"i":["1","1","1","1"]}},"padding":{"s":"VkFMSUQ="},"TArgs":{"list":{"type":["DT_FLOAT"]}},"epsilon":{"f":0},"use_cudnn_on_gpu":{"b":true},"leakyrelu_alpha":{"f":0.2},"T":{"type":"DT_FLOAT"},"num_args":{"i":"1"},"num_host_args":{"i":"0"},"filter_format":{"s":"SFdJTw=="},"explicit_paddings":{"list":{}},"data_format":{"s":"TkhXQw=="},"strides":{"list":{"i":["1","1","1","1"]}}}},
          {"name":"bn3d_branch2c/FusedBatchNormV3","op":"_FusedConv2D","input":["res3d_branch2b_relu/Relu","res3d_branch2c/convolution_weights","res3d_branch2c/convolution_bn_offset"],"device":"/device:CPU:0","attr":{"data_format":{"s":"TkhXQw=="},"fused_ops":{"list":{"s":["Qmlhc0FkZA=="]}},"num_args":{"i":"1"},"num_host_args":{"i":"0"},"dilations":{"list":{"i":["1","1","1","1"]}},"filter_format":{"s":"SFdJTw=="},"leakyrelu_alpha":{"f":0.2},"T":{"type":"DT_FLOAT"},"explicit_paddings":{"list":{}},"TArgs":{"list":{"type":["DT_FLOAT"]}},"epsilon":{"f":0},"padding":{"s":"VkFMSUQ="},"strides":{"list":{"i":["1","1","1","1"]}},"use_cudnn_on_gpu":{"b":true}}},
          {"name":"res3d/add","op":"AddV2","input":["bn3d_branch2c/FusedBatchNormV3","res3c_relu/Relu"],"attr":{"T":{"type":"DT_FLOAT"}}},
          {"name":"res3d_relu/Relu","op":"Relu","input":["res3d/add"],"attr":{"T":{"type":"DT_FLOAT"}}},
          {"name":"P4_upsampled/Shape","op":"Shape","input":["res3d_relu/Relu"],"attr":{"out_type":{"type":"DT_INT32"},"T":{"type":"DT_FLOAT"}}},
          {"name":"C3_reduced/BiasAdd","op":"_FusedConv2D","input":["res3d_relu/Relu","C3_reduced/kernel","C3_reduced/bias"],"device":"/device:CPU:0","attr":{"filter_format":{"s":"SFdJTw=="},"padding":{"s":"U0FNRQ=="},"use_cudnn_on_gpu":{"b":true},"TArgs":{"list":{"type":["DT_FLOAT"]}},"num_host_args":{"i":"0"},"dilations":{"list":{"i":["1","1","1","1"]}},"epsilon":{"f":0},"num_args":{"i":"1"},"strides":{"list":{"i":["1","1","1","1"]}},"explicit_paddings":{"list":{}},"fused_ops":{"list":{"s":["Qmlhc0FkZA=="]}},"T":{"type":"DT_FLOAT"},"data_format":{"s":"TkhXQw=="},"leakyrelu_alpha":{"f":0.2}}},
          {"name":"res4a_branch2a_relu/Relu","op":"_FusedConv2D","input":["res3d_relu/Relu","res4a_branch2a/convolution_weights","res4a_branch2a/convolution_bn_offset"],"device":"/device:CPU:0","attr":{"num_host_args":{"i":"0"},"fused_ops":{"list":{"s":["Qmlhc0FkZA==","UmVsdQ=="]}},"data_format":{"s":"TkhXQw=="},"use_cudnn_on_gpu":{"b":true},"dilations":{"list":{"i":["1","1","1","1"]}},"explicit_paddings":{"list":{}},"padding":{"s":"VkFMSUQ="},"strides":{"list":{"i":["1","2","2","1"]}},"filter_format":{"s":"SFdJTw=="},"leakyrelu_alpha":{"f":0.2},"num_args":{"i":"1"},"TArgs":{"list":{"type":["DT_FLOAT"]}},"T":{"type":"DT_FLOAT"},"epsilon":{"f":0}}},
          {"name":"bn4a_branch1/FusedBatchNormV3","op":"_FusedConv2D","input":["res3d_relu/Relu","res4a_branch1/convolution_weights","res4a_branch1/convolution_bn_offset"],"device":"/device:CPU:0","attr":{"epsilon":{"f":0},"dilations":{"list":{"i":["1","1","1","1"]}},"num_args":{"i":"1"},"T":{"type":"DT_FLOAT"},"padding":{"s":"VkFMSUQ="},"strides":{"list":{"i":["1","2","2","1"]}},"TArgs":{"list":{"type":["DT_FLOAT"]}},"use_cudnn_on_gpu":{"b":true},"fused_ops":{"list":{"s":["Qmlhc0FkZA=="]}},"leakyrelu_alpha":{"f":0.2},"filter_format":{"s":"SFdJTw=="},"data_format":{"s":"TkhXQw=="},"num_host_args":{"i":"0"},"explicit_paddings":{"list":{}}}},
          {"name":"P4_upsampled/strided_slice","op":"StridedSlice","input":["P4_upsampled/Shape","P4_upsampled/strided_slice/stack","P4_upsampled/strided_slice/stack_1","P4_upsampled/strided_slice/stack_2"],"attr":{"shrink_axis_mask":{"i":"1"},"begin_mask":{"i":"0"},"new_axis_mask":{"i":"0"},"Index":{"type":"DT_INT32"},"end_mask":{"i":"0"},"T":{"type":"DT_INT32"},"ellipsis_mask":{"i":"0"}}},
          {"name":"P4_upsampled/strided_slice_1","op":"StridedSlice","input":["P4_upsampled/Shape","P4_upsampled/strided_slice_1/stack","P4_upsampled/strided_slice_1/stack_1","P4_upsampled/strided_slice_1/stack_2"],"attr":{"ellipsis_mask":{"i":"0"},"Index":{"type":"DT_INT32"},"T":{"type":"DT_INT32"},"begin_mask":{"i":"0"},"shrink_axis_mask":{"i":"1"},"new_axis_mask":{"i":"0"},"end_mask":{"i":"0"}}},
          {"name":"padding4a_branch2b/Pad","op":"Pad","input":["res4a_branch2a_relu/Relu","padding4a_branch2b/Pad/paddings"],"attr":{"Tpaddings":{"type":"DT_INT32"},"T":{"type":"DT_FLOAT"}}},
          {"name":"P4_upsampled/resize/size","op":"Pack","input":["P4_upsampled/strided_slice","P4_upsampled/strided_slice_1"],"attr":{"axis":{"i":"0"},"N":{"i":"2"},"T":{"type":"DT_INT32"}}},
          {"name":"res4a_branch2b_relu/Relu","op":"_FusedConv2D","input":["padding4a_branch2b/Pad","res4a_branch2b/convolution_weights","res4a_branch2b/convolution_bn_offset"],"device":"/device:CPU:0","attr":{"data_format":{"s":"TkhXQw=="},"epsilon":{"f":0},"fused_ops":{"list":{"s":["Qmlhc0FkZA==","UmVsdQ=="]}},"num_args":{"i":"1"},"leakyrelu_alpha":{"f":0.2},"num_host_args":{"i":"0"},"filter_format":{"s":"SFdJTw=="},"padding":{"s":"VkFMSUQ="},"explicit_paddings":{"list":{}},"strides":{"list":{"i":["1","1","1","1"]}},"dilations":{"list":{"i":["1","1","1","1"]}},"use_cudnn_on_gpu":{"b":true},"T":{"type":"DT_FLOAT"},"TArgs":{"list":{"type":["DT_FLOAT"]}}}},
          {"name":"bn4a_branch2c/FusedBatchNormV3","op":"_FusedConv2D","input":["res4a_branch2b_relu/Relu","res4a_branch2c/convolution_weights","res4a_branch2c/convolution_bn_offset"],"device":"/device:CPU:0","attr":{"T":{"type":"DT_FLOAT"},"explicit_paddings":{"list":{}},"num_host_args":{"i":"0"},"leakyrelu_alpha":{"f":0.2},"num_args":{"i":"1"},"epsilon":{"f":0},"TArgs":{"list":{"type":["DT_FLOAT"]}},"fused_ops":{"list":{"s":["Qmlhc0FkZA=="]}},"use_cudnn_on_gpu":{"b":true},"dilations":{"list":{"i":["1","1","1","1"]}},"strides":{"list":{"i":["1","1","1","1"]}},"padding":{"s":"VkFMSUQ="},"filter_format":{"s":"SFdJTw=="},"data_format":{"s":"TkhXQw=="}}},
          {"name":"res4a/add","op":"AddV2","input":["bn4a_branch2c/FusedBatchNormV3","bn4a_branch1/FusedBatchNormV3"],"attr":{"T":{"type":"DT_FLOAT"}}},
          {"name":"res4a_relu/Relu","op":"Relu","input":["res4a/add"],"attr":{"T":{"type":"DT_FLOAT"}}},
          {"name":"res4b_branch2a_relu/Relu","op":"_FusedConv2D","input":["res4a_relu/Relu","res4b_branch2a/convolution_weights","res4b_branch2a/convolution_bn_offset"],"device":"/device:CPU:0","attr":{"fused_ops":{"list":{"s":["Qmlhc0FkZA==","UmVsdQ=="]}},"TArgs":{"list":{"type":["DT_FLOAT"]}},"epsilon":{"f":0},"T":{"type":"DT_FLOAT"},"explicit_paddings":{"list":{}},"use_cudnn_on_gpu":{"b":true},"padding":{"s":"VkFMSUQ="},"data_format":{"s":"TkhXQw=="},"num_host_args":{"i":"0"},"dilations":{"list":{"i":["1","1","1","1"]}},"strides":{"list":{"i":["1","1","1","1"]}},"filter_format":{"s":"SFdJTw=="},"leakyrelu_alpha":{"f":0.2},"num_args":{"i":"1"}}},
          {"name":"padding4b_branch2b/Pad","op":"Pad","input":["res4b_branch2a_relu/Relu","padding4b_branch2b/Pad/paddings"],"attr":{"T":{"type":"DT_FLOAT"},"Tpaddings":{"type":"DT_INT32"}}},
          {"name":"res4b_branch2b_relu/Relu","op":"_FusedConv2D","input":["padding4b_branch2b/Pad","res4b_branch2b/convolution_weights","res4b_branch2b/convolution_bn_offset"],"device":"/device:CPU:0","attr":{"explicit_paddings":{"list":{}},"padding":{"s":"VkFMSUQ="},"num_args":{"i":"1"},"epsilon":{"f":0},"TArgs":{"list":{"type":["DT_FLOAT"]}},"fused_ops":{"list":{"s":["Qmlhc0FkZA==","UmVsdQ=="]}},"num_host_args":{"i":"0"},"filter_format":{"s":"SFdJTw=="},"dilations":{"list":{"i":["1","1","1","1"]}},"T":{"type":"DT_FLOAT"},"strides":{"list":{"i":["1","1","1","1"]}},"data_format":{"s":"TkhXQw=="},"leakyrelu_alpha":{"f":0.2},"use_cudnn_on_gpu":{"b":true}}},
          {"name":"bn4b_branch2c/FusedBatchNormV3","op":"_FusedConv2D","input":["res4b_branch2b_relu/Relu","res4b_branch2c/convolution_weights","res4b_branch2c/convolution_bn_offset"],"device":"/device:CPU:0","attr":{"strides":{"list":{"i":["1","1","1","1"]}},"leakyrelu_alpha":{"f":0.2},"explicit_paddings":{"list":{}},"num_args":{"i":"1"},"num_host_args":{"i":"0"},"epsilon":{"f":0},"TArgs":{"list":{"type":["DT_FLOAT"]}},"use_cudnn_on_gpu":{"b":true},"padding":{"s":"VkFMSUQ="},"dilations":{"list":{"i":["1","1","1","1"]}},"T":{"type":"DT_FLOAT"},"fused_ops":{"list":{"s":["Qmlhc0FkZA=="]}},"filter_format":{"s":"SFdJTw=="},"data_format":{"s":"TkhXQw=="}}},
          {"name":"res4b/add","op":"AddV2","input":["bn4b_branch2c/FusedBatchNormV3","res4a_relu/Relu"],"attr":{"T":{"type":"DT_FLOAT"}}},
          {"name":"res4b_relu/Relu","op":"Relu","input":["res4b/add"],"attr":{"T":{"type":"DT_FLOAT"}}},
          {"name":"res4c_branch2a_relu/Relu","op":"_FusedConv2D","input":["res4b_relu/Relu","res4c_branch2a/convolution_weights","res4c_branch2a/convolution_bn_offset"],"device":"/device:CPU:0","attr":{"T":{"type":"DT_FLOAT"},"dilations":{"list":{"i":["1","1","1","1"]}},"strides":{"list":{"i":["1","1","1","1"]}},"data_format":{"s":"TkhXQw=="},"num_host_args":{"i":"0"},"num_args":{"i":"1"},"TArgs":{"list":{"type":["DT_FLOAT"]}},"filter_format":{"s":"SFdJTw=="},"leakyrelu_alpha":{"f":0.2},"fused_ops":{"list":{"s":["Qmlhc0FkZA==","UmVsdQ=="]}},"padding":{"s":"VkFMSUQ="},"epsilon":{"f":0},"explicit_paddings":{"list":{}},"use_cudnn_on_gpu":{"b":true}}},
          {"name":"padding4c_branch2b/Pad","op":"Pad","input":["res4c_branch2a_relu/Relu","padding4c_branch2b/Pad/paddings"],"attr":{"T":{"type":"DT_FLOAT"},"Tpaddings":{"type":"DT_INT32"}}},
          {"name":"res4c_branch2b_relu/Relu","op":"_FusedConv2D","input":["padding4c_branch2b/Pad","res4c_branch2b/convolution_weights","res4c_branch2b/convolution_bn_offset"],"device":"/device:CPU:0","attr":{"epsilon":{"f":0},"explicit_paddings":{"list":{}},"T":{"type":"DT_FLOAT"},"fused_ops":{"list":{"s":["Qmlhc0FkZA==","UmVsdQ=="]}},"filter_format":{"s":"SFdJTw=="},"dilations":{"list":{"i":["1","1","1","1"]}},"num_host_args":{"i":"0"},"data_format":{"s":"TkhXQw=="},"strides":{"list":{"i":["1","1","1","1"]}},"leakyrelu_alpha":{"f":0.2},"TArgs":{"list":{"type":["DT_FLOAT"]}},"use_cudnn_on_gpu":{"b":true},"num_args":{"i":"1"},"padding":{"s":"VkFMSUQ="}}},
          {"name":"bn4c_branch2c/FusedBatchNormV3","op":"_FusedConv2D","input":["res4c_branch2b_relu/Relu","res4c_branch2c/convolution_weights","res4c_branch2c/convolution_bn_offset"],"device":"/device:CPU:0","attr":{"padding":{"s":"VkFMSUQ="},"num_host_args":{"i":"0"},"data_format":{"s":"TkhXQw=="},"leakyrelu_alpha":{"f":0.2},"dilations":{"list":{"i":["1","1","1","1"]}},"TArgs":{"list":{"type":["DT_FLOAT"]}},"num_args":{"i":"1"},"T":{"type":"DT_FLOAT"},"filter_format":{"s":"SFdJTw=="},"strides":{"list":{"i":["1","1","1","1"]}},"epsilon":{"f":0},"explicit_paddings":{"list":{}},"fused_ops":{"list":{"s":["Qmlhc0FkZA=="]}},"use_cudnn_on_gpu":{"b":true}}},
          {"name":"res4c/add","op":"AddV2","input":["bn4c_branch2c/FusedBatchNormV3","res4b_relu/Relu"],"attr":{"T":{"type":"DT_FLOAT"}}},
          {"name":"res4c_relu/Relu","op":"Relu","input":["res4c/add"],"attr":{"T":{"type":"DT_FLOAT"}}},
          {"name":"res4d_branch2a_relu/Relu","op":"_FusedConv2D","input":["res4c_relu/Relu","res4d_branch2a/convolution_weights","res4d_branch2a/convolution_bn_offset"],"device":"/device:CPU:0","attr":{"filter_format":{"s":"SFdJTw=="},"use_cudnn_on_gpu":{"b":true},"dilations":{"list":{"i":["1","1","1","1"]}},"TArgs":{"list":{"type":["DT_FLOAT"]}},"data_format":{"s":"TkhXQw=="},"num_args":{"i":"1"},"strides":{"list":{"i":["1","1","1","1"]}},"T":{"type":"DT_FLOAT"},"fused_ops":{"list":{"s":["Qmlhc0FkZA==","UmVsdQ=="]}},"epsilon":{"f":0},"leakyrelu_alpha":{"f":0.2},"num_host_args":{"i":"0"},"padding":{"s":"VkFMSUQ="},"explicit_paddings":{"list":{}}}},
          {"name":"padding4d_branch2b/Pad","op":"Pad","input":["res4d_branch2a_relu/Relu","padding4d_branch2b/Pad/paddings"],"attr":{"T":{"type":"DT_FLOAT"},"Tpaddings":{"type":"DT_INT32"}}},
          {"name":"res4d_branch2b_relu/Relu","op":"_FusedConv2D","input":["padding4d_branch2b/Pad","res4d_branch2b/convolution_weights","res4d_branch2b/convolution_bn_offset"],"device":"/device:CPU:0","attr":{"filter_format":{"s":"SFdJTw=="},"num_args":{"i":"1"},"explicit_paddings":{"list":{}},"epsilon":{"f":0},"dilations":{"list":{"i":["1","1","1","1"]}},"data_format":{"s":"TkhXQw=="},"use_cudnn_on_gpu":{"b":true},"T":{"type":"DT_FLOAT"},"strides":{"list":{"i":["1","1","1","1"]}},"fused_ops":{"list":{"s":["Qmlhc0FkZA==","UmVsdQ=="]}},"num_host_args":{"i":"0"},"TArgs":{"list":{"type":["DT_FLOAT"]}},"leakyrelu_alpha":{"f":0.2},"padding":{"s":"VkFMSUQ="}}},
          {"name":"bn4d_branch2c/FusedBatchNormV3","op":"_FusedConv2D","input":["res4d_branch2b_relu/Relu","res4d_branch2c/convolution_weights","res4d_branch2c/convolution_bn_offset"],"device":"/device:CPU:0","attr":{"use_cudnn_on_gpu":{"b":true},"num_args":{"i":"1"},"filter_format":{"s":"SFdJTw=="},"data_format":{"s":"TkhXQw=="},"explicit_paddings":{"list":{}},"TArgs":{"list":{"type":["DT_FLOAT"]}},"fused_ops":{"list":{"s":["Qmlhc0FkZA=="]}},"T":{"type":"DT_FLOAT"},"strides":{"list":{"i":["1","1","1","1"]}},"epsilon":{"f":0},"leakyrelu_alpha":{"f":0.2},"num_host_args":{"i":"0"},"dilations":{"list":{"i":["1","1","1","1"]}},"padding":{"s":"VkFMSUQ="}}},
          {"name":"res4d/add","op":"AddV2","input":["bn4d_branch2c/FusedBatchNormV3","res4c_relu/Relu"],"attr":{"T":{"type":"DT_FLOAT"}}},
          {"name":"res4d_relu/Relu","op":"Relu","input":["res4d/add"],"attr":{"T":{"type":"DT_FLOAT"}}},
          {"name":"res4e_branch2a_relu/Relu","op":"_FusedConv2D","input":["res4d_relu/Relu","res4e_branch2a/convolution_weights","res4e_branch2a/convolution_bn_offset"],"device":"/device:CPU:0","attr":{"explicit_paddings":{"list":{}},"dilations":{"list":{"i":["1","1","1","1"]}},"padding":{"s":"VkFMSUQ="},"T":{"type":"DT_FLOAT"},"data_format":{"s":"TkhXQw=="},"num_args":{"i":"1"},"fused_ops":{"list":{"s":["Qmlhc0FkZA==","UmVsdQ=="]}},"num_host_args":{"i":"0"},"epsilon":{"f":0},"use_cudnn_on_gpu":{"b":true},"filter_format":{"s":"SFdJTw=="},"TArgs":{"list":{"type":["DT_FLOAT"]}},"leakyrelu_alpha":{"f":0.2},"strides":{"list":{"i":["1","1","1","1"]}}}},
          {"name":"padding4e_branch2b/Pad","op":"Pad","input":["res4e_branch2a_relu/Relu","padding4e_branch2b/Pad/paddings"],"attr":{"Tpaddings":{"type":"DT_INT32"},"T":{"type":"DT_FLOAT"}}},
          {"name":"res4e_branch2b_relu/Relu","op":"_FusedConv2D","input":["padding4e_branch2b/Pad","res4e_branch2b/convolution_weights","res4e_branch2b/convolution_bn_offset"],"device":"/device:CPU:0","attr":{"strides":{"list":{"i":["1","1","1","1"]}},"num_host_args":{"i":"0"},"TArgs":{"list":{"type":["DT_FLOAT"]}},"use_cudnn_on_gpu":{"b":true},"filter_format":{"s":"SFdJTw=="},"explicit_paddings":{"list":{}},"padding":{"s":"VkFMSUQ="},"T":{"type":"DT_FLOAT"},"data_format":{"s":"TkhXQw=="},"epsilon":{"f":0},"fused_ops":{"list":{"s":["Qmlhc0FkZA==","UmVsdQ=="]}},"leakyrelu_alpha":{"f":0.2},"num_args":{"i":"1"},"dilations":{"list":{"i":["1","1","1","1"]}}}},
          {"name":"bn4e_branch2c/FusedBatchNormV3","op":"_FusedConv2D","input":["res4e_branch2b_relu/Relu","res4e_branch2c/convolution_weights","res4e_branch2c/convolution_bn_offset"],"device":"/device:CPU:0","attr":{"TArgs":{"list":{"type":["DT_FLOAT"]}},"T":{"type":"DT_FLOAT"},"strides":{"list":{"i":["1","1","1","1"]}},"num_args":{"i":"1"},"padding":{"s":"VkFMSUQ="},"dilations":{"list":{"i":["1","1","1","1"]}},"explicit_paddings":{"list":{}},"data_format":{"s":"TkhXQw=="},"fused_ops":{"list":{"s":["Qmlhc0FkZA=="]}},"filter_format":{"s":"SFdJTw=="},"leakyrelu_alpha":{"f":0.2},"num_host_args":{"i":"0"},"use_cudnn_on_gpu":{"b":true},"epsilon":{"f":0}}},
          {"name":"res4e/add","op":"AddV2","input":["bn4e_branch2c/FusedBatchNormV3","res4d_relu/Relu"],"attr":{"T":{"type":"DT_FLOAT"}}},
          {"name":"res4e_relu/Relu","op":"Relu","input":["res4e/add"],"attr":{"T":{"type":"DT_FLOAT"}}},
          {"name":"res4f_branch2a_relu/Relu","op":"_FusedConv2D","input":["res4e_relu/Relu","res4f_branch2a/convolution_weights","res4f_branch2a/convolution_bn_offset"],"device":"/device:CPU:0","attr":{"num_args":{"i":"1"},"T":{"type":"DT_FLOAT"},"filter_format":{"s":"SFdJTw=="},"explicit_paddings":{"list":{}},"epsilon":{"f":0},"TArgs":{"list":{"type":["DT_FLOAT"]}},"padding":{"s":"VkFMSUQ="},"data_format":{"s":"TkhXQw=="},"strides":{"list":{"i":["1","1","1","1"]}},"leakyrelu_alpha":{"f":0.2},"use_cudnn_on_gpu":{"b":true},"dilations":{"list":{"i":["1","1","1","1"]}},"fused_ops":{"list":{"s":["Qmlhc0FkZA==","UmVsdQ=="]}},"num_host_args":{"i":"0"}}},
          {"name":"padding4f_branch2b/Pad","op":"Pad","input":["res4f_branch2a_relu/Relu","padding4f_branch2b/Pad/paddings"],"attr":{"T":{"type":"DT_FLOAT"},"Tpaddings":{"type":"DT_INT32"}}},
          {"name":"res4f_branch2b_relu/Relu","op":"_FusedConv2D","input":["padding4f_branch2b/Pad","res4f_branch2b/convolution_weights","res4f_branch2b/convolution_bn_offset"],"device":"/device:CPU:0","attr":{"epsilon":{"f":0},"num_host_args":{"i":"0"},"strides":{"list":{"i":["1","1","1","1"]}},"filter_format":{"s":"SFdJTw=="},"leakyrelu_alpha":{"f":0.2},"dilations":{"list":{"i":["1","1","1","1"]}},"num_args":{"i":"1"},"padding":{"s":"VkFMSUQ="},"fused_ops":{"list":{"s":["Qmlhc0FkZA==","UmVsdQ=="]}},"TArgs":{"list":{"type":["DT_FLOAT"]}},"T":{"type":"DT_FLOAT"},"use_cudnn_on_gpu":{"b":true},"explicit_paddings":{"list":{}},"data_format":{"s":"TkhXQw=="}}},
          {"name":"bn4f_branch2c/FusedBatchNormV3","op":"_FusedConv2D","input":["res4f_branch2b_relu/Relu","res4f_branch2c/convolution_weights","res4f_branch2c/convolution_bn_offset"],"device":"/device:CPU:0","attr":{"num_args":{"i":"1"},"T":{"type":"DT_FLOAT"},"filter_format":{"s":"SFdJTw=="},"data_format":{"s":"TkhXQw=="},"padding":{"s":"VkFMSUQ="},"num_host_args":{"i":"0"},"TArgs":{"list":{"type":["DT_FLOAT"]}},"explicit_paddings":{"list":{}},"strides":{"list":{"i":["1","1","1","1"]}},"dilations":{"list":{"i":["1","1","1","1"]}},"leakyrelu_alpha":{"f":0.2},"epsilon":{"f":0},"use_cudnn_on_gpu":{"b":true},"fused_ops":{"list":{"s":["Qmlhc0FkZA=="]}}}},
          {"name":"res4f/add","op":"AddV2","input":["bn4f_branch2c/FusedBatchNormV3","res4e_relu/Relu"],"attr":{"T":{"type":"DT_FLOAT"}}},
          {"name":"res4f_relu/Relu","op":"Relu","input":["res4f/add"],"attr":{"T":{"type":"DT_FLOAT"}}},
          {"name":"P5_upsampled/Shape","op":"Shape","input":["res4f_relu/Relu"],"attr":{"out_type":{"type":"DT_INT32"},"T":{"type":"DT_FLOAT"}}},
          {"name":"C4_reduced/BiasAdd","op":"_FusedConv2D","input":["res4f_relu/Relu","C4_reduced/kernel","C4_reduced/bias"],"device":"/device:CPU:0","attr":{"use_cudnn_on_gpu":{"b":true},"num_args":{"i":"1"},"padding":{"s":"U0FNRQ=="},"explicit_paddings":{"list":{}},"strides":{"list":{"i":["1","1","1","1"]}},"data_format":{"s":"TkhXQw=="},"filter_format":{"s":"SFdJTw=="},"T":{"type":"DT_FLOAT"},"epsilon":{"f":0},"TArgs":{"list":{"type":["DT_FLOAT"]}},"fused_ops":{"list":{"s":["Qmlhc0FkZA=="]}},"num_host_args":{"i":"0"},"leakyrelu_alpha":{"f":0.2},"dilations":{"list":{"i":["1","1","1","1"]}}}},
          {"name":"res5a_branch2a_relu/Relu","op":"_FusedConv2D","input":["res4f_relu/Relu","res5a_branch2a/convolution_weights","res5a_branch2a/convolution_bn_offset"],"device":"/device:CPU:0","attr":{"data_format":{"s":"TkhXQw=="},"num_args":{"i":"1"},"strides":{"list":{"i":["1","2","2","1"]}},"padding":{"s":"VkFMSUQ="},"use_cudnn_on_gpu":{"b":true},"T":{"type":"DT_FLOAT"},"explicit_paddings":{"list":{}},"fused_ops":{"list":{"s":["Qmlhc0FkZA==","UmVsdQ=="]}},"TArgs":{"list":{"type":["DT_FLOAT"]}},"leakyrelu_alpha":{"f":0.2},"dilations":{"list":{"i":["1","1","1","1"]}},"epsilon":{"f":0},"num_host_args":{"i":"0"},"filter_format":{"s":"SFdJTw=="}}},
          {"name":"bn5a_branch1/FusedBatchNormV3","op":"_FusedConv2D","input":["res4f_relu/Relu","res5a_branch1/convolution_weights","res5a_branch1/convolution_bn_offset"],"device":"/device:CPU:0","attr":{"data_format":{"s":"TkhXQw=="},"epsilon":{"f":0},"TArgs":{"list":{"type":["DT_FLOAT"]}},"fused_ops":{"list":{"s":["Qmlhc0FkZA=="]}},"dilations":{"list":{"i":["1","1","1","1"]}},"strides":{"list":{"i":["1","2","2","1"]}},"num_host_args":{"i":"0"},"leakyrelu_alpha":{"f":0.2},"explicit_paddings":{"list":{}},"filter_format":{"s":"SFdJTw=="},"use_cudnn_on_gpu":{"b":true},"num_args":{"i":"1"},"padding":{"s":"VkFMSUQ="},"T":{"type":"DT_FLOAT"}}},
          {"name":"P5_upsampled/strided_slice","op":"StridedSlice","input":["P5_upsampled/Shape","P5_upsampled/strided_slice/stack","P5_upsampled/strided_slice/stack_1","P5_upsampled/strided_slice/stack_2"],"attr":{"new_axis_mask":{"i":"0"},"shrink_axis_mask":{"i":"1"},"Index":{"type":"DT_INT32"},"end_mask":{"i":"0"},"begin_mask":{"i":"0"},"ellipsis_mask":{"i":"0"},"T":{"type":"DT_INT32"}}},
          {"name":"P5_upsampled/strided_slice_1","op":"StridedSlice","input":["P5_upsampled/Shape","P5_upsampled/strided_slice_1/stack","P5_upsampled/strided_slice_1/stack_1","P5_upsampled/strided_slice_1/stack_2"],"attr":{"begin_mask":{"i":"0"},"Index":{"type":"DT_INT32"},"shrink_axis_mask":{"i":"1"},"end_mask":{"i":"0"},"T":{"type":"DT_INT32"},"ellipsis_mask":{"i":"0"},"new_axis_mask":{"i":"0"}}},
          {"name":"padding5a_branch2b/Pad","op":"Pad","input":["res5a_branch2a_relu/Relu","padding5a_branch2b/Pad/paddings"],"attr":{"T":{"type":"DT_FLOAT"},"Tpaddings":{"type":"DT_INT32"}}},
          {"name":"P5_upsampled/resize/size","op":"Pack","input":["P5_upsampled/strided_slice","P5_upsampled/strided_slice_1"],"attr":{"T":{"type":"DT_INT32"},"N":{"i":"2"},"axis":{"i":"0"}}},
          {"name":"res5a_branch2b_relu/Relu","op":"_FusedConv2D","input":["padding5a_branch2b/Pad","res5a_branch2b/convolution_weights","res5a_branch2b/convolution_bn_offset"],"device":"/device:CPU:0","attr":{"padding":{"s":"VkFMSUQ="},"num_host_args":{"i":"0"},"epsilon":{"f":0},"strides":{"list":{"i":["1","1","1","1"]}},"fused_ops":{"list":{"s":["Qmlhc0FkZA==","UmVsdQ=="]}},"T":{"type":"DT_FLOAT"},"filter_format":{"s":"SFdJTw=="},"data_format":{"s":"TkhXQw=="},"TArgs":{"list":{"type":["DT_FLOAT"]}},"dilations":{"list":{"i":["1","1","1","1"]}},"leakyrelu_alpha":{"f":0.2},"num_args":{"i":"1"},"explicit_paddings":{"list":{}},"use_cudnn_on_gpu":{"b":true}}},
          {"name":"bn5a_branch2c/FusedBatchNormV3","op":"_FusedConv2D","input":["res5a_branch2b_relu/Relu","res5a_branch2c/convolution_weights","res5a_branch2c/convolution_bn_offset"],"device":"/device:CPU:0","attr":{"use_cudnn_on_gpu":{"b":true},"data_format":{"s":"TkhXQw=="},"padding":{"s":"VkFMSUQ="},"explicit_paddings":{"list":{}},"dilations":{"list":{"i":["1","1","1","1"]}},"T":{"type":"DT_FLOAT"},"fused_ops":{"list":{"s":["Qmlhc0FkZA=="]}},"strides":{"list":{"i":["1","1","1","1"]}},"epsilon":{"f":0},"num_host_args":{"i":"0"},"num_args":{"i":"1"},"TArgs":{"list":{"type":["DT_FLOAT"]}},"filter_format":{"s":"SFdJTw=="},"leakyrelu_alpha":{"f":0.2}}},
          {"name":"res5a/add","op":"AddV2","input":["bn5a_branch2c/FusedBatchNormV3","bn5a_branch1/FusedBatchNormV3"],"attr":{"T":{"type":"DT_FLOAT"}}},
          {"name":"res5a_relu/Relu","op":"Relu","input":["res5a/add"],"attr":{"T":{"type":"DT_FLOAT"}}},
          {"name":"res5b_branch2a_relu/Relu","op":"_FusedConv2D","input":["res5a_relu/Relu","res5b_branch2a/convolution_weights","res5b_branch2a/convolution_bn_offset"],"device":"/device:CPU:0","attr":{"strides":{"list":{"i":["1","1","1","1"]}},"leakyrelu_alpha":{"f":0.2},"use_cudnn_on_gpu":{"b":true},"TArgs":{"list":{"type":["DT_FLOAT"]}},"epsilon":{"f":0},"filter_format":{"s":"SFdJTw=="},"padding":{"s":"VkFMSUQ="},"dilations":{"list":{"i":["1","1","1","1"]}},"explicit_paddings":{"list":{}},"num_host_args":{"i":"0"},"data_format":{"s":"TkhXQw=="},"num_args":{"i":"1"},"fused_ops":{"list":{"s":["Qmlhc0FkZA==","UmVsdQ=="]}},"T":{"type":"DT_FLOAT"}}},
          {"name":"padding5b_branch2b/Pad","op":"Pad","input":["res5b_branch2a_relu/Relu","padding5b_branch2b/Pad/paddings"],"attr":{"T":{"type":"DT_FLOAT"},"Tpaddings":{"type":"DT_INT32"}}},
          {"name":"res5b_branch2b_relu/Relu","op":"_FusedConv2D","input":["padding5b_branch2b/Pad","res5b_branch2b/convolution_weights","res5b_branch2b/convolution_bn_offset"],"device":"/device:CPU:0","attr":{"explicit_paddings":{"list":{}},"data_format":{"s":"TkhXQw=="},"use_cudnn_on_gpu":{"b":true},"leakyrelu_alpha":{"f":0.2},"fused_ops":{"list":{"s":["Qmlhc0FkZA==","UmVsdQ=="]}},"T":{"type":"DT_FLOAT"},"filter_format":{"s":"SFdJTw=="},"epsilon":{"f":0},"num_host_args":{"i":"0"},"padding":{"s":"VkFMSUQ="},"TArgs":{"list":{"type":["DT_FLOAT"]}},"strides":{"list":{"i":["1","1","1","1"]}},"dilations":{"list":{"i":["1","1","1","1"]}},"num_args":{"i":"1"}}},
          {"name":"bn5b_branch2c/FusedBatchNormV3","op":"_FusedConv2D","input":["res5b_branch2b_relu/Relu","res5b_branch2c/convolution_weights","res5b_branch2c/convolution_bn_offset"],"device":"/device:CPU:0","attr":{"TArgs":{"list":{"type":["DT_FLOAT"]}},"epsilon":{"f":0},"dilations":{"list":{"i":["1","1","1","1"]}},"padding":{"s":"VkFMSUQ="},"data_format":{"s":"TkhXQw=="},"use_cudnn_on_gpu":{"b":true},"filter_format":{"s":"SFdJTw=="},"num_args":{"i":"1"},"strides":{"list":{"i":["1","1","1","1"]}},"T":{"type":"DT_FLOAT"},"leakyrelu_alpha":{"f":0.2},"num_host_args":{"i":"0"},"fused_ops":{"list":{"s":["Qmlhc0FkZA=="]}},"explicit_paddings":{"list":{}}}},
          {"name":"res5b/add","op":"AddV2","input":["bn5b_branch2c/FusedBatchNormV3","res5a_relu/Relu"],"attr":{"T":{"type":"DT_FLOAT"}}},
          {"name":"res5b_relu/Relu","op":"Relu","input":["res5b/add"],"attr":{"T":{"type":"DT_FLOAT"}}},
          {"name":"res5c_branch2a_relu/Relu","op":"_FusedConv2D","input":["res5b_relu/Relu","res5c_branch2a/convolution_weights","res5c_branch2a/convolution_bn_offset"],"device":"/device:CPU:0","attr":{"dilations":{"list":{"i":["1","1","1","1"]}},"num_args":{"i":"1"},"use_cudnn_on_gpu":{"b":true},"TArgs":{"list":{"type":["DT_FLOAT"]}},"epsilon":{"f":0},"leakyrelu_alpha":{"f":0.2},"data_format":{"s":"TkhXQw=="},"fused_ops":{"list":{"s":["Qmlhc0FkZA==","UmVsdQ=="]}},"explicit_paddings":{"list":{}},"filter_format":{"s":"SFdJTw=="},"strides":{"list":{"i":["1","1","1","1"]}},"padding":{"s":"VkFMSUQ="},"T":{"type":"DT_FLOAT"},"num_host_args":{"i":"0"}}},
          {"name":"padding5c_branch2b/Pad","op":"Pad","input":["res5c_branch2a_relu/Relu","padding5c_branch2b/Pad/paddings"],"attr":{"T":{"type":"DT_FLOAT"},"Tpaddings":{"type":"DT_INT32"}}},
          {"name":"res5c_branch2b_relu/Relu","op":"_FusedConv2D","input":["padding5c_branch2b/Pad","res5c_branch2b/convolution_weights","res5c_branch2b/convolution_bn_offset"],"device":"/device:CPU:0","attr":{"fused_ops":{"list":{"s":["Qmlhc0FkZA==","UmVsdQ=="]}},"leakyrelu_alpha":{"f":0.2},"epsilon":{"f":0},"strides":{"list":{"i":["1","1","1","1"]}},"dilations":{"list":{"i":["1","1","1","1"]}},"TArgs":{"list":{"type":["DT_FLOAT"]}},"explicit_paddings":{"list":{}},"use_cudnn_on_gpu":{"b":true},"padding":{"s":"VkFMSUQ="},"num_host_args":{"i":"0"},"filter_format":{"s":"SFdJTw=="},"T":{"type":"DT_FLOAT"},"num_args":{"i":"1"},"data_format":{"s":"TkhXQw=="}}},
          {"name":"bn5c_branch2c/FusedBatchNormV3","op":"_FusedConv2D","input":["res5c_branch2b_relu/Relu","res5c_branch2c/convolution_weights","res5c_branch2c/convolution_bn_offset"],"device":"/device:CPU:0","attr":{"padding":{"s":"VkFMSUQ="},"num_host_args":{"i":"0"},"use_cudnn_on_gpu":{"b":true},"filter_format":{"s":"SFdJTw=="},"data_format":{"s":"TkhXQw=="},"explicit_paddings":{"list":{}},"strides":{"list":{"i":["1","1","1","1"]}},"num_args":{"i":"1"},"epsilon":{"f":0},"leakyrelu_alpha":{"f":0.2},"T":{"type":"DT_FLOAT"},"dilations":{"list":{"i":["1","1","1","1"]}},"fused_ops":{"list":{"s":["Qmlhc0FkZA=="]}},"TArgs":{"list":{"type":["DT_FLOAT"]}}}},
          {"name":"res5c/add","op":"AddV2","input":["bn5c_branch2c/FusedBatchNormV3","res5b_relu/Relu"],"attr":{"T":{"type":"DT_FLOAT"}}},
          {"name":"res5c_relu/Relu","op":"Relu","input":["res5c/add"],"attr":{"T":{"type":"DT_FLOAT"}}},
          {"name":"C5_reduced/BiasAdd","op":"_FusedConv2D","input":["res5c_relu/Relu","C5_reduced/kernel","C5_reduced/bias"],"device":"/device:CPU:0","attr":{"data_format":{"s":"TkhXQw=="},"filter_format":{"s":"SFdJTw=="},"leakyrelu_alpha":{"f":0.2},"epsilon":{"f":0},"use_cudnn_on_gpu":{"b":true},"explicit_paddings":{"list":{}},"num_args":{"i":"1"},"T":{"type":"DT_FLOAT"},"TArgs":{"list":{"type":["DT_FLOAT"]}},"num_host_args":{"i":"0"},"strides":{"list":{"i":["1","1","1","1"]}},"dilations":{"list":{"i":["1","1","1","1"]}},"padding":{"s":"U0FNRQ=="},"fused_ops":{"list":{"s":["Qmlhc0FkZA=="]}}}},
          {"name":"P6/BiasAdd","op":"_FusedConv2D","input":["res5c_relu/Relu","P6/kernel","P6/bias"],"device":"/device:CPU:0","attr":{"filter_format":{"s":"SFdJTw=="},"fused_ops":{"list":{"s":["Qmlhc0FkZA=="]}},"explicit_paddings":{"list":{}},"padding":{"s":"U0FNRQ=="},"num_host_args":{"i":"0"},"T":{"type":"DT_FLOAT"},"use_cudnn_on_gpu":{"b":true},"data_format":{"s":"TkhXQw=="},"TArgs":{"list":{"type":["DT_FLOAT"]}},"leakyrelu_alpha":{"f":0.2},"dilations":{"list":{"i":["1","1","1","1"]}},"num_args":{"i":"1"},"strides":{"list":{"i":["1","2","2","1"]}},"epsilon":{"f":0}}},
          {"name":"P5_upsampled/resize/ResizeNearestNeighbor","op":"ResizeNearestNeighbor","input":["C5_reduced/BiasAdd","P5_upsampled/resize/size"],"attr":{"half_pixel_centers":{"b":false},"align_corners":{"b":false},"T":{"type":"DT_FLOAT"}}},
          {"name":"P5/BiasAdd","op":"_FusedConv2D","input":["C5_reduced/BiasAdd","P5/kernel","P5/bias"],"device":"/device:CPU:0","attr":{"use_cudnn_on_gpu":{"b":true},"filter_format":{"s":"SFdJTw=="},"T":{"type":"DT_FLOAT"},"explicit_paddings":{"list":{}},"leakyrelu_alpha":{"f":0.2},"num_args":{"i":"1"},"padding":{"s":"U0FNRQ=="},"num_host_args":{"i":"0"},"epsilon":{"f":0},"fused_ops":{"list":{"s":["Qmlhc0FkZA=="]}},"TArgs":{"list":{"type":["DT_FLOAT"]}},"dilations":{"list":{"i":["1","1","1","1"]}},"strides":{"list":{"i":["1","1","1","1"]}},"data_format":{"s":"TkhXQw=="}}},
          {"name":"classification_submodel_3/pyramid_classification_0/Relu","op":"_FusedConv2D","input":["P6/BiasAdd","pyramid_classification_0/kernel","pyramid_classification_0/bias"],"device":"/device:CPU:0","attr":{"data_format":{"s":"TkhXQw=="},"epsilon":{"f":0},"strides":{"list":{"i":["1","1","1","1"]}},"dilations":{"list":{"i":["1","1","1","1"]}},"fused_ops":{"list":{"s":["Qmlhc0FkZA==","UmVsdQ=="]}},"T":{"type":"DT_FLOAT"},"filter_format":{"s":"SFdJTw=="},"num_args":{"i":"1"},"use_cudnn_on_gpu":{"b":true},"leakyrelu_alpha":{"f":0.2},"padding":{"s":"U0FNRQ=="},"num_host_args":{"i":"0"},"explicit_paddings":{"list":{}},"TArgs":{"list":{"type":["DT_FLOAT"]}}}},
          {"name":"regression_submodel_3/pyramid_regression_0/Relu","op":"_FusedConv2D","input":["P6/BiasAdd","pyramid_regression_0/kernel","pyramid_regression_0/bias"],"device":"/device:CPU:0","attr":{"num_host_args":{"i":"0"},"dilations":{"list":{"i":["1","1","1","1"]}},"explicit_paddings":{"list":{}},"T":{"type":"DT_FLOAT"},"use_cudnn_on_gpu":{"b":true},"strides":{"list":{"i":["1","1","1","1"]}},"data_format":{"s":"TkhXQw=="},"epsilon":{"f":0},"num_args":{"i":"1"},"TArgs":{"list":{"type":["DT_FLOAT"]}},"leakyrelu_alpha":{"f":0.2},"padding":{"s":"U0FNRQ=="},"filter_format":{"s":"SFdJTw=="},"fused_ops":{"list":{"s":["Qmlhc0FkZA==","UmVsdQ=="]}}}},
          {"name":"anchors_3/Shape","op":"Shape","input":["P6/BiasAdd"],"attr":{"T":{"type":"DT_FLOAT"},"out_type":{"type":"DT_INT32"}}},
          {"name":"C6_relu/Relu","op":"Relu","input":["P6/BiasAdd"],"attr":{"T":{"type":"DT_FLOAT"}}},
          {"name":"P4_merged/add","op":"AddV2","input":["P5_upsampled/resize/ResizeNearestNeighbor","C4_reduced/BiasAdd"],"attr":{"T":{"type":"DT_FLOAT"}}},
          {"name":"classification_submodel_2/pyramid_classification_0/Relu","op":"_FusedConv2D","input":["P5/BiasAdd","pyramid_classification_0/kernel","pyramid_classification_0/bias"],"device":"/device:CPU:0","attr":{"num_args":{"i":"1"},"strides":{"list":{"i":["1","1","1","1"]}},"TArgs":{"list":{"type":["DT_FLOAT"]}},"use_cudnn_on_gpu":{"b":true},"dilations":{"list":{"i":["1","1","1","1"]}},"padding":{"s":"U0FNRQ=="},"epsilon":{"f":0},"fused_ops":{"list":{"s":["Qmlhc0FkZA==","UmVsdQ=="]}},"data_format":{"s":"TkhXQw=="},"leakyrelu_alpha":{"f":0.2},"filter_format":{"s":"SFdJTw=="},"num_host_args":{"i":"0"},"explicit_paddings":{"list":{}},"T":{"type":"DT_FLOAT"}}},
          {"name":"regression_submodel_2/pyramid_regression_0/Relu","op":"_FusedConv2D","input":["P5/BiasAdd","pyramid_regression_0/kernel","pyramid_regression_0/bias"],"device":"/device:CPU:0","attr":{"TArgs":{"list":{"type":["DT_FLOAT"]}},"strides":{"list":{"i":["1","1","1","1"]}},"dilations":{"list":{"i":["1","1","1","1"]}},"padding":{"s":"U0FNRQ=="},"fused_ops":{"list":{"s":["Qmlhc0FkZA==","UmVsdQ=="]}},"use_cudnn_on_gpu":{"b":true},"num_host_args":{"i":"0"},"T":{"type":"DT_FLOAT"},"num_args":{"i":"1"},"epsilon":{"f":0},"explicit_paddings":{"list":{}},"data_format":{"s":"TkhXQw=="},"leakyrelu_alpha":{"f":0.2},"filter_format":{"s":"SFdJTw=="}}},
          {"name":"anchors_2/Shape","op":"Shape","input":["P5/BiasAdd"],"attr":{"out_type":{"type":"DT_INT32"},"T":{"type":"DT_FLOAT"}}},
          {"name":"classification_submodel_3/pyramid_classification_1/Relu","op":"_FusedConv2D","input":["classification_submodel_3/pyramid_classification_0/Relu","pyramid_classification_1/kernel","pyramid_classification_1/bias"],"device":"/device:CPU:0","attr":{"filter_format":{"s":"SFdJTw=="},"strides":{"list":{"i":["1","1","1","1"]}},"explicit_paddings":{"list":{}},"dilations":{"list":{"i":["1","1","1","1"]}},"use_cudnn_on_gpu":{"b":true},"padding":{"s":"U0FNRQ=="},"T":{"type":"DT_FLOAT"},"epsilon":{"f":0},"num_host_args":{"i":"0"},"num_args":{"i":"1"},"leakyrelu_alpha":{"f":0.2},"data_format":{"s":"TkhXQw=="},"TArgs":{"list":{"type":["DT_FLOAT"]}},"fused_ops":{"list":{"s":["Qmlhc0FkZA==","UmVsdQ=="]}}}},
          {"name":"regression_submodel_3/pyramid_regression_1/Relu","op":"_FusedConv2D","input":["regression_submodel_3/pyramid_regression_0/Relu","pyramid_regression_1/kernel","pyramid_regression_1/bias"],"device":"/device:CPU:0","attr":{"padding":{"s":"U0FNRQ=="},"dilations":{"list":{"i":["1","1","1","1"]}},"epsilon":{"f":0},"num_args":{"i":"1"},"num_host_args":{"i":"0"},"strides":{"list":{"i":["1","1","1","1"]}},"leakyrelu_alpha":{"f":0.2},"data_format":{"s":"TkhXQw=="},"use_cudnn_on_gpu":{"b":true},"fused_ops":{"list":{"s":["Qmlhc0FkZA==","UmVsdQ=="]}},"TArgs":{"list":{"type":["DT_FLOAT"]}},"T":{"type":"DT_FLOAT"},"explicit_paddings":{"list":{}},"filter_format":{"s":"SFdJTw=="}}},
          {"name":"anchors_3/strided_slice","op":"StridedSlice","input":["anchors_3/Shape","anchors_3/strided_slice/stack","anchors_3/strided_slice/stack_1","anchors_3/strided_slice/stack_2"],"attr":{"T":{"type":"DT_INT32"},"new_axis_mask":{"i":"0"},"begin_mask":{"i":"0"},"ellipsis_mask":{"i":"0"},"shrink_axis_mask":{"i":"0"},"end_mask":{"i":"0"},"Index":{"type":"DT_INT32"}}},
          {"name":"anchors_3/strided_slice_5","op":"StridedSlice","input":["anchors_3/Shape","anchors_3/strided_slice_5/stack","anchors_3/strided_slice_5/stack_1","anchors_3/strided_slice_5/stack_2"],"attr":{"new_axis_mask":{"i":"0"},"end_mask":{"i":"0"},"shrink_axis_mask":{"i":"1"},"Index":{"type":"DT_INT32"},"T":{"type":"DT_INT32"},"ellipsis_mask":{"i":"0"},"begin_mask":{"i":"0"}}},
          {"name":"P7/BiasAdd","op":"_FusedConv2D","input":["C6_relu/Relu","P7/kernel","P7/bias"],"device":"/device:CPU:0","attr":{"use_cudnn_on_gpu":{"b":true},"TArgs":{"list":{"type":["DT_FLOAT"]}},"num_args":{"i":"1"},"explicit_paddings":{"list":{}},"fused_ops":{"list":{"s":["Qmlhc0FkZA=="]}},"dilations":{"list":{"i":["1","1","1","1"]}},"data_format":{"s":"TkhXQw=="},"strides":{"list":{"i":["1","2","2","1"]}},"epsilon":{"f":0},"filter_format":{"s":"SFdJTw=="},"leakyrelu_alpha":{"f":0.2},"T":{"type":"DT_FLOAT"},"padding":{"s":"U0FNRQ=="},"num_host_args":{"i":"0"}}},
          {"name":"P4_upsampled/resize/ResizeNearestNeighbor","op":"ResizeNearestNeighbor","input":["P4_merged/add","P4_upsampled/resize/size"],"attr":{"T":{"type":"DT_FLOAT"},"half_pixel_centers":{"b":false},"align_corners":{"b":false}}},
          {"name":"P4/BiasAdd","op":"_FusedConv2D","input":["P4_merged/add","P4/kernel","P4/bias"],"device":"/device:CPU:0","attr":{"epsilon":{"f":0},"padding":{"s":"U0FNRQ=="},"num_host_args":{"i":"0"},"dilations":{"list":{"i":["1","1","1","1"]}},"T":{"type":"DT_FLOAT"},"explicit_paddings":{"list":{}},"TArgs":{"list":{"type":["DT_FLOAT"]}},"fused_ops":{"list":{"s":["Qmlhc0FkZA=="]}},"strides":{"list":{"i":["1","1","1","1"]}},"filter_format":{"s":"SFdJTw=="},"use_cudnn_on_gpu":{"b":true},"data_format":{"s":"TkhXQw=="},"num_args":{"i":"1"},"leakyrelu_alpha":{"f":0.2}}},
          {"name":"classification_submodel_2/pyramid_classification_1/Relu","op":"_FusedConv2D","input":["classification_submodel_2/pyramid_classification_0/Relu","pyramid_classification_1/kernel","pyramid_classification_1/bias"],"device":"/device:CPU:0","attr":{"epsilon":{"f":0},"strides":{"list":{"i":["1","1","1","1"]}},"data_format":{"s":"TkhXQw=="},"padding":{"s":"U0FNRQ=="},"use_cudnn_on_gpu":{"b":true},"fused_ops":{"list":{"s":["Qmlhc0FkZA==","UmVsdQ=="]}},"T":{"type":"DT_FLOAT"},"filter_format":{"s":"SFdJTw=="},"num_host_args":{"i":"0"},"explicit_paddings":{"list":{}},"num_args":{"i":"1"},"TArgs":{"list":{"type":["DT_FLOAT"]}},"leakyrelu_alpha":{"f":0.2},"dilations":{"list":{"i":["1","1","1","1"]}}}},
          {"name":"regression_submodel_2/pyramid_regression_1/Relu","op":"_FusedConv2D","input":["regression_submodel_2/pyramid_regression_0/Relu","pyramid_regression_1/kernel","pyramid_regression_1/bias"],"device":"/device:CPU:0","attr":{"dilations":{"list":{"i":["1","1","1","1"]}},"use_cudnn_on_gpu":{"b":true},"filter_format":{"s":"SFdJTw=="},"TArgs":{"list":{"type":["DT_FLOAT"]}},"fused_ops":{"list":{"s":["Qmlhc0FkZA==","UmVsdQ=="]}},"leakyrelu_alpha":{"f":0.2},"num_args":{"i":"1"},"data_format":{"s":"TkhXQw=="},"padding":{"s":"U0FNRQ=="},"strides":{"list":{"i":["1","1","1","1"]}},"num_host_args":{"i":"0"},"T":{"type":"DT_FLOAT"},"explicit_paddings":{"list":{}},"epsilon":{"f":0}}},
          {"name":"anchors_2/strided_slice","op":"StridedSlice","input":["anchors_2/Shape","anchors_2/strided_slice/stack","anchors_2/strided_slice/stack_1","anchors_2/strided_slice/stack_2"],"attr":{"T":{"type":"DT_INT32"},"begin_mask":{"i":"0"},"ellipsis_mask":{"i":"0"},"Index":{"type":"DT_INT32"},"shrink_axis_mask":{"i":"0"},"new_axis_mask":{"i":"0"},"end_mask":{"i":"0"}}},
          {"name":"anchors_2/strided_slice_5","op":"StridedSlice","input":["anchors_2/Shape","anchors_2/strided_slice_5/stack","anchors_2/strided_slice_5/stack_1","anchors_2/strided_slice_5/stack_2"],"attr":{"Index":{"type":"DT_INT32"},"shrink_axis_mask":{"i":"1"},"new_axis_mask":{"i":"0"},"end_mask":{"i":"0"},"begin_mask":{"i":"0"},"ellipsis_mask":{"i":"0"},"T":{"type":"DT_INT32"}}},
          {"name":"classification_submodel_3/pyramid_classification_2/Relu","op":"_FusedConv2D","input":["classification_submodel_3/pyramid_classification_1/Relu","pyramid_classification_2/kernel","pyramid_classification_2/bias"],"device":"/device:CPU:0","attr":{"data_format":{"s":"TkhXQw=="},"epsilon":{"f":0},"leakyrelu_alpha":{"f":0.2},"explicit_paddings":{"list":{}},"filter_format":{"s":"SFdJTw=="},"use_cudnn_on_gpu":{"b":true},"fused_ops":{"list":{"s":["Qmlhc0FkZA==","UmVsdQ=="]}},"num_host_args":{"i":"0"},"num_args":{"i":"1"},"strides":{"list":{"i":["1","1","1","1"]}},"dilations":{"list":{"i":["1","1","1","1"]}},"padding":{"s":"U0FNRQ=="},"TArgs":{"list":{"type":["DT_FLOAT"]}},"T":{"type":"DT_FLOAT"}}},
…
ype":"float32"}},{"name":"res2c_branch2c/convolution_bn_offset","shape":[256],"dtype":"float32","quantization":{"dtype":"float16","original_dtype":"float32"}},{"name":"res3a_branch2a/convolution_weights","shape":[1,1,256,128],"dtype":"float32","quantization":{"dtype":"float16","original_dtype":"float32"}},{"name":"res3a_branch2a/convolution_bn_offset","shape":[128],"dtype":"float32","quantization":{"dtype":"float16","original_dtype":"float32"}},{"name":"res3a_branch1/convolution_weights","shape":[1,1,256,512],"dtype":"float32","quantization":{"dtype":"float16","original_dtype":"float32"}},{"name":"res3a_branch1/convolution_bn_offset","shape":[512],"dtype":"float32","quantization":{"dtype":"float16","original_dtype":"float32"}},{"name":"res3a_branch2b/convolution_weights","shape":[3,3,128,128],"dtype":"float32","quantization":{"dtype":"float16","original_dtype":"float32"}},{"name":"res3a_branch2b/convolution_bn_offset","shape":[128],"dtype":"float32","quantization":{"dtype":"float16","original_dtype":"float32"}},{"name":"res3a_branch2c/convolution_weights","shape":[1,1,128,512],"dtype":"float32","quantization":{"dtype":"float16","original_dtype":"float32"}},{"name":"res3a_branch2c/convolution_bn_offset","shape":[512],"dtype":"float32","quantization":{"dtype":"float16","original_dtype":"float32"}},{"name":"res3b_branch2a/convolution_weights","shape":[1,1,512,128],"dtype":"float32","quantization":{"dtype":"float16","original_dtype":"float32"}},{"name":"res3b_branch2a/convolution_bn_offset","shape":[128],"dtype":"float32","quantization":{"dtype":"float16","original_dtype":"float32"}},{"name":"res3b_branch2b/convolution_weights","shape":[3,3,128,128],"dtype":"float32","quantization":{"dtype":"float16","original_dtype":"float32"}},{"name":"res3b_branch2b/convolution_bn_offset","shape":[128],"dtype":"float32","quantization":{"dtype":"float16","original_dtype":"float32"}},{"name":"res3b_branch2c/convolution_weights","shape":[1,1,128,512],"dtype":"float32","quantization":{"dtype":"float16","original_dtype":"float32"}},{"name":"res3b_branch2c/convolution_bn_offset","shape":[512],"dtype":"float32","quantization":{"dtype":"float16","original_dtype":"float32"}},{"name":"res3c_branch2a/convolution_weights","shape":[1,1,512,128],"dtype":"float32","quantization":{"dtype":"float16","original_dtype":"float32"}},{"name":"res3c_branch2a/convolution_bn_offset","shape":[128],"dtype":"float32","quantization":{"dtype":"float16","original_dtype":"float32"}},{"name":"res3c_branch2b/convolution_weights","shape":[3,3,128,128],"dtype":"float32","quantization":{"dtype":"float16","original_dtype":"float32"}},{"name":"res3c_branch2b/convolution_bn_offset","shape":[128],"dtype":"float32","quantization":{"dtype":"float16","original_dtype":"float32"}},{"name":"res3c_branch2c/convolution_weights","shape":[1,1,128,512],"dtype":"float32","quantization":{"dtype":"float16","original_dtype":"float32"}},{"name":"res3c_branch2c/convolution_bn_offset","shape":[512],"dtype":"float32","quantization":{"dtype":"float16","original_dtype":"float32"}},{"name":"res3d_branch2a/convolution_weights","shape":[1,1,512,128],"dtype":"float32","quantization":{"dtype":"float16","original_dtype":"float32"}},{"name":"res3d_branch2a/convolution_bn_offset","shape":[128],"dtype":"float32","quantization":{"dtype":"float16","original_dtype":"float32"}},{"name":"res3d_branch2b/convolution_weights","shape":[3,3,128,128],"dtype":"float32","quantization":{"dtype":"float16","original_dtype":"float32"}},{"name":"res3d_branch2b/convolution_bn_offset","shape":[128],"dtype":"float32","quantization":{"dtype":"float16","original_dtype":"float32"}},{"name":"res3d_branch2c/convolution_weights","shape":[1,1,128,512],"dtype":"float32","quantization":{"dtype":"float16","original_dtype":"float32"}},{"name":"res3d_branch2c/convolution_bn_offset","shape":[512],"dtype":"float32","quantization":{"dtype":"float16","original_dtype":"float32"}},{"name":"res4a_branch2a/convolution_weights","shape":[1,1,512,256],"dtype":"float32","quantization":{"dtype":"float16","original_dtype":"float32"}},{"name":"res4a_branch2a/convolution_bn_offset","shape":[256],"dtype":"float32","quantization":{"dtype":"float16","original_dtype":"float32"}},{"name":"res4a_branch1/convolution_weights","shape":[1,1,512,1024],"dtype":"float32","quantization":{"dtype":"float16","original_dtype":"float32"}},{"name":"res4a_branch1/convolution_bn_offset","shape":[1024],"dtype":"float32","quantization":{"dtype":"float16","original_dtype":"float32"}},{"name":"res4a_branch2b/convolution_weights","shape":[3,3,256,256],"dtype":"float32","quantization":{"dtype":"float16","original_dtype":"float32"}},{"name":"res4a_branch2b/convolution_bn_offset","shape":[256],"dtype":"float32","quantization":{"dtype":"float16","original_dtype":"float32"}},{"name":"res4a_branch2c/convolution_weights","shape":[1,1,256,1024],"dtype":"float32","quantization":{"dtype":"float16","original_dtype":"float32"}},{"name":"res4a_branch2c/convolution_bn_offset","shape":[1024],"dtype":"float32","quantization":{"dtype":"float16","original_dtype":"float32"}},{"name":"res4b_branch2a/convolution_weights","shape":[1,1,1024,256],"dtype":"float32","quantization":{"dtype":"float16","original_dtype":"float32"}},{"name":"res4b_branch2a/convolution_bn_offset","shape":[256],"dtype":"float32","quantization":{"dtype":"float16","original_dtype":"float32"}},{"name":"res4b_branch2b/convolution_weights","shape":[3,3,256,256],"dtype":"float32","quantization":{"dtype":"float16","original_dtype":"float32"}},{"name":"res4b_branch2b/convolution_bn_offset","shape":[256],"dtype":"float32","quantization":{"dtype":"float16","original_dtype":"float32"}},{"name":"res4b_branch2c/convolution_weights","shape":[1,1,256,1024],"dtype":"float32","quantization":{"dtype":"float16","original_dtype":"float32"}},{"name":"res4b_branch2c/convolution_bn_offset","shape":[1024],"dtype":"float32","quantization":{"dtype":"float16","original_dtype":"float32"}},{"name":"res4c_branch2a/convolution_weights","shape":[1,1,1024,256],"dtype":"float32","quantization":{"dtype":"float16","original_dtype":"float32"}},{"name":"res4c_branch2a/convolution_bn_offset","shape":[256],"dtype":"float32","quantization":{"dtype":"float16","original_dtype":"float32"}},{"name":"res4c_branch2b/convolution_weights","shape":[3,3,256,256],"dtype":"float32","quantization":{"dtype":"float16","original_dtype":"float32"}},{"name":"res4c_branch2b/convolution_bn_offset","shape":[256],"dtype":"float32","quantization":{"dtype":"float16","original_dtype":"float32"}},{"name":"res4c_branch2c/convolution_weights","shape":[1,1,256,1024],"dtype":"float32","quantization":{"dtype":"float16","original_dtype":"float32"}},{"name":"res4c_branch2c/convolution_bn_offset","shape":[1024],"dtype":"float32","quantization":{"dtype":"float16","original_dtype":"float32"}},{"name":"res4d_branch2a/convolution_weights","shape":[1,1,1024,256],"dtype":"float32","quantization":{"dtype":"float16","original_dtype":"float32"}},{"name":"res4d_branch2a/convolution_bn_offset","shape":[256],"dtype":"float32","quantization":{"dtype":"float16","original_dtype":"float32"}},{"name":"res4d_branch2b/convolution_weights","shape":[3,3,256,256],"dtype":"float32","quantization":{"dtype":"float16","original_dtype":"float32"}},{"name":"res4d_branch2b/convolution_bn_offset","shape":[256],"dtype":"float32","quantization":{"dtype":"float16","original_dtype":"float32"}},{"name":"res4d_branch2c/convolution_weights","shape":[1,1,256,1024],"dtype":"float32","quantization":{"dtype":"float16","original_dtype":"float32"}},{"name":"res4d_branch2c/convolution_bn_offset","shape":[1024],"dtype":"float32","quantization":{"dtype":"float16","original_dtype":"float32"}},{"name":"res4e_branch2a/convolution_weights","shape":[1,1,1024,256],"dtype":"float32","quantization":{"dtype":"float16","original_dtype":"float32"}},{"name":"res4e_branch2a/convolution_bn_offset","shape":[256],"dtype":"float32","quantization":{"dtype":"float16","original_dtype":"float32"}},{"name":"res4e_branch2b/convolution_weights","shape":[3,3,256,256],"dtype":"float32","quantization":{"dtype":"float16","original_dtype":"float32"}},{"name":"res4e_branch2b/convolution_bn_offset","shape":[256],"dtype":"float32","quantization":{"dtype":"float16","original_dtype":"float32"}},{"name":"res4e_branch2c/convolution_weights","shape":[1,1,256,1024],"dtype":"float32","quantization":{"dtype":"float16","original_dtype":"float32"}},{"name":"res4e_branch2c/convolution_bn_offset","shape":[1024],"dtype":"float32","quantization":{"dtype":"float16","original_dtype":"float32"}},{"name":"res4f_branch2a/convolution_weights","shape":[1,1,1024,256],"dtype":"float32","quantization":{"dtype":"float16","original_dtype":"float32"}},{"name":"res4f_branch2a/convolution_bn_offset","shape":[256],"dtype":"float32","quantization":{"dtype":"float16","original_dtype":"float32"}},{"name":"res4f_branch2b/convolution_weights","shape":[3,3,256,256],"dtype":"float32","quantization":{"dtype":"float16","original_dtype":"float32"}},{"name":"res4f_branch2b/convolution_bn_offset","shape":[256],"dtype":"float32","quantization":{"dtype":"float16","original_dtype":"float32"}},{"name":"res4f_branch2c/convolution_weights","shape":[1,1,256,1024],"dtype":"float32","quantization":{"dtype":"float16","original_dtype":"float32"}},{"name":"res4f_branch2c/convolution_bn_offset","shape":[1024],"dtype":"float32","quantization":{"dtype":"float16","original_dtype":"float32"}},{"name":"res5a_branch2a/convolution_weights","shape":[1,1,1024,512],"dtype":"float32","quantization":{"dtype":"float16","original_dtype":"float32"}},{"name":"res5a_branch2a/convolution_bn_offset","shape":[512],"dtype":"float32","quantization":{"dtype":"float16","original_dtype":"float32"}},{"name":"res5a_branch1/convolution_weights","shape":[1,1,1024,2048],"dtype":"float32","quantization":{"dtype":"float16","original_dtype":"float32"}},{"name":"res5a_branch1/convolution_bn_offset","shape":[2048],"dtype":"float32","quantization":{"dtype":"float16","original_dtype":"float32"}},{"name":"res5a_branch2b/convolution_weights","shape":[3,3,512,512],"dtype":"float32","quantization":{"dtype":"float16","original_dtype":"float32"}},{"name":"res5a_branch2b/convolution_bn_offset","shape":[512],"dtype":"float32","quantization":{"dtype":"float16","original_dtype":"float32"}},{"name":"res5a_branch2c/convolution_weights","shape":[1,1,512,2048],"dtype":"float32","quantization":{"dtype":"float16","original_dtype":"float32"}},{"name":"res5a_branch2c/convolution_bn_offset","shape":[2048],"dtype":"float32","quantization":{"dtype":"float16","original_dtype":"float32"}},{"name":"res5b_branch2a/convolution_weights","shape":[1,1,2048,512],"dtype":"float32","quantization":{"dtype":"float16","original_dtype":"float32"}},{"name":"res5b_branch2a/convolution_bn_offset","shape":[512],"dtype":"float32","quantization":{"dtype":"float16","original_dtype":"float32"}},{"name":"res5b_branch2b/convolution_weights","shape":[3,3,512,512],"dtype":"float32","quantization":{"dtype":"float16","original_dtype":"float32"}},{"name":"res5b_branch2b/convolution_bn_offset","shape":[512],"dtype":"float32","quantization":{"dtype":"float16","original_dtype":"float32"}},{"name":"res5b_branch2c/convolution_weights","shape":[1,1,512,2048],"dtype":"float32","quantization":{"dtype":"float16","original_dtype":"float32"}},{"name":"res5b_branch2c/convolution_bn_offset","shape":[2048],"dtype":"float32","quantization":{"dtype":"float16","original_dtype":"float32"}},{"name":"res5c_branch2a/convolution_weights","shape":[1,1,2048,512],"dtype":"float32","quantization":{"dtype":"float16","original_dtype":"float32"}},{"name":"res5c_branch2a/convolution_bn_offset","shape":[512],"dtype":"float32","quantization":{"dtype":"float16","original_dtype":"float32"}},{"name":"res5c_branch2b/convolution_weights","shape":[3,3,512,512],"dtype":"float32","quantization":{"dtype":"float16","original_dtype":"float32"}},{"name":"res5c_branch2b/convolution_bn_offset","shape":[512],"dtype":"float32","quantization":{"dtype":"float16","original_dtype":"float32"}},{"name":"res5c_branch2c/convolution_weights","shape":[1,1,512,2048],"dtype":"float32","quantization":{"dtype":"float16","original_dtype":"float32"}},{"name":"res5c_branch2c/convolution_bn_offset","shape":[2048],"dtype":"float32","quantization":{"dtype":"float16","original_dtype":"float32"}},{"name":"filtered_detections/map/while/non_max_suppression_14/score_threshold","shape":[],"dtype":"float32","quantization":{"dtype":"float16","original_dtype":"float32"}},{"name":"filtered_detections/map/while/embedding_lookup_29/axis","shape":[],"dtype":"int32"},{"name":"filtered_detections/map/while/strided_slice_63/stack","shape":[2],"dtype":"int32"},{"name":"filtered_detections/map/while/strided_slice_63/stack_1","shape":[2],"dtype":"int32"},{"name":"filtered_detections/map/while/strided_slice_63/stack_2","shape":[2],"dtype":"int32"},{"name":"filtered_detections/map/while/mul_15/x","shape":[],"dtype":"int32"},{"name":"filtered_detections/map/while/strided_slice_61/stack","shape":[1],"dtype":"int32"},{"name":"filtered_detections/map/while/strided_slice_61/stack_1","shape":[1],"dtype":"int32"},{"name":"filtered_detections/map/while/strided_slice_61/stack_2","shape":[1],"dtype":"int32"},{"name":"filtered_detections/map/while/ones_15/Const","shape":[],"dtype":"int32"},{"name":"filtered_detections/map/while/strided_slice_60/stack","shape":[2],"dtype":"int32"},{"name":"filtered_detections/map/while/strided_slice_60/stack_1","shape":[2],"dtype":"int32"},{"name":"filtered_detections/map/while/strided_slice_60/stack_2","shape":[2],"dtype":"int32"},{"name":"filtered_detections/map/while/Greater_15/y","shape":[],"dtype":"float32","quantization":{"dtype":"float16","original_dtype":"float32"}},{"name":"filtered_detections/map/while/embedding_lookup_30/axis","shape":[],"dtype":"int32"},{"name":"filtered_detections/map/while/strided_slice_62/stack","shape":[2],"dtype":"int32"},{"name":"filtered_detections/map/while/strided_slice_62/stack_1","shape":[2],"dtype":"int32"},{"name":"filtered_detections/map/while/strided_slice_62/stack_2","shape":[2],"dtype":"int32"},{"name":"filtered_detections/map/while/non_max_suppression_15/NonMaxSuppressionV3/max_output_size","shape":[],"dtype":"int32"},{"name":"filtered_detections/map/while/non_max_suppression_15/iou_threshold","shape":[],"dtype":"float32","quantization":{"dtype":"float16","original_dtype":"float32"}},{"name":"filtered_detections/map/while/non_max_suppression_15/score_threshold","shape":[],"dtype":"float32","quantization":{"dtype":"float16","original_dtype":"float32"}},{"name":"filtered_detections/map/while/embedding_lookup_31/axis","shape":[],"dtype":"int32"},{"name":"filtered_detections/map/while/concat/axis","shape":[],"dtype":"int32"},{"name":"filtered_detections/map/while/strided_slice_65/stack","shape":[1],"dtype":"int32"},{"name":"filtered_detections/map/while/strided_slice_65/stack_1","shape":[1],"dtype":"int32"},{"name":"filtered_detections/map/while/strided_slice_65/stack_2","shape":[1],"dtype":"int32"},{"name":"filtered_detections/map/while/strided_slice_67/stack","shape":[1],"dtype":"int32"},{"name":"filtered_detections/map/while/strided_slice_67/stack_1","shape":[1],"dtype":"int32"},{"name":"filtered_detections/map/while/strided_slice_67/stack_2","shape":[1],"dtype":"int32"},{"name":"filtered_detections/map/while/PadV2_2/constant_values","shape":[],"dtype":"int32"},{"name":"filtered_detections/map/while/add/y","shape":[],"dtype":"int32"},{"name":"filtered_detections/map/while/add_1/y","shape":[],"dtype":"int32"},{"name":"filtered_detections/map/while/strided_slice_66/stack","shape":[2],"dtype":"int32"},{"name":"filtered_detections/map/while/strided_slice_66/stack_1","shape":[2],"dtype":"int32"},{"name":"filtered_detections/map/while/strided_slice_66/stack_2","shape":[2],"dtype":"int32"},{"name":"filtered_detections/map/while/embedding_lookup_32/axis","shape":[],"dtype":"int32"},{"name":"filtered_detections/map/while/embedding_lookup_33/axis","shape":[],"dtype":"int32"},{"name":"filtered_detections/map/while/PadV2/paddings/0/0","shape":[],"dtype":"int32"},{"name":"filtered_detections/map/while/PadV2/paddings/1_1","shape":[2],"dtype":"int32"},{"name":"filtered_detections/map/while/PadV2/constant_values","shape":[],"dtype":"float32","quantization":{"dtype":"float16","original_dtype":"float32"}},{"name":"filtered_detections/map/while/PadV2_1/paddings/0/0","shape":[],"dtype":"int32"},{"name":"filtered_detections/map/while/PadV2_1/constant_values","shape":[],"dtype":"float32","quantization":{"dtype":"float16","original_dtype":"float32"}},{"name":"filtered_detections/map/while/strided_slice_64/stack","shape":[2],"dtype":"int32"},{"name":"filtered_detections/map/while/strided_slice_64/stack_1","shape":[2],"dtype":"int32"},{"name":"filtered_detections/map/while/strided_slice_64/stack_2","shape":[2],"dtype":"int32"},{"name":"filtered_detections/map/while/embedding_lookup_34/axis","shape":[],"dtype":"int32"},{"name":"filtered_detections/map/while/PadV2_2/paddings/0/0","shape":[],"dtype":"int32"},{"name":"filtered_detections/map/while/Maximum/x","shape":[],"dtype":"int32"},{"name":"filtered_detections/map/while/sub/x","shape":[],"dtype":"int32"},{"name":"filtered_detections/map/while/Minimum/x","shape":[],"dtype":"int32"},{"name":"filtered_detections/map/while/strided_slice_3/stack","shape":[2],"dtype":"int32"},{"name":"filtered_detections/map/while/strided_slice_3/stack_1","shape":[2],"dtype":"int32"},{"name":"filtered_detections/map/while/strided_slice_3/stack_2","shape":[2],"dtype":"int32"},{"name":"filtered_detections/map/while/mul/x","shape":[],"dtype":"int32"},{"name":"filtered_detections/map/while/strided_slice_1/stack","shape":[1],"dtype":"int32"},{"name":"filtered_detections/map/while/strided_slice_1/stack_1","shape":[1],"dtype":"int32"},{"name":"filtered_detections/map/while/strided_slice_1/stack_2","shape":[1],"dtype":"int32"},{"name":"filtered_detections/map/while/ones/Const","shape":[],"dtype":"int32"},{"name":"filtered_detections/map/while/strided_slice/stack","shape":[2],"dtype":"int32"},{"name":"filtered_detections/map/while/strided_slice/stack_1","shape":[2],"dtype":"int32"},{"name":"filtered_detections/map/while/strided_slice/stack_2","shape":[2],"dtype":"int32"},{"name":"filtered_detections/map/while/Greater/y","shape":[],"dtype":"float32","quantization":{"dtype":"float16","original_dtype":"float32"}},{"name":"filtered_detections/map/while/embedding_lookup/axis","shape":[],"dtype":"int32"},{"name":"filtered_detections/map/while/strided_slice_2/stack","shape":[2],"dtype":"int32"},{"name":"filtered_detections/map/while/strided_slice_2/stack_1","shape":[2],"dtype":"int32"},{"name":"filtered_detections/map/while/strided_slice_2/stack_2","shape":[2],"dtype":"int32"},{"name":"filtered_detections/map/while/non_max_suppression/NonMaxSuppressionV3/max_output_size","shape":[],"dtype":"int32"},{"name":"filtered_detections/map/while/non_max_suppression/iou_threshold","shape":[],"dtype":"float32","quantization":{"dtype":"float16","original_dtype":"float32"}},{"name":"filtered_detections/map/while/non_max_suppression/score_threshold","shape":[],"dtype":"float32","quantization":{"dtype":"float16","original_dtype":"float32"}},{"name":"filtered_detections/map/while/embedding_lookup_1/axis","shape":[],"dtype":"int32"},{"name":"filtered_detections/map/while/strided_slice_7/stack","shape":[2],"dtype":"int32"},{"name":"filtered_detections/map/while/strided_slice_7/stack_1","shape":[2],"dtype":"int32"},{"name":"filtered_detections/map/while/strided_slice_7/stack_2","shape":[2],"dtype":"int32"},{"name":"filtered_detections/map/while/strided_slice_5/stack","shape":[1],"dtype":"int32"},{"name":"filtered_detections/map/while/strided_slice_5/stack_1","shape":[1],"dtype":"int32"},{"name":"filtered_detections/map/while/strided_slice_5/stack_2","shape":[1],"dtype":"int32"},{"name":"filtered_detections/map/while/ones_1/Const","shape":[],"dtype":"int32"},{"name":"filtered_detections/map/while/strided_slice_4/stack","shape":[2],"dtype":"int32"},{"name":"filtered_detections/map/while/strided_slice_4/stack_1","shape":[2],"dtype":"int32"},{"name":"filtered_detections/map/while/strided_slice_4/stack_2","shape":[2],"dtype":"int32"},{"name":"filtered_detections/map/while/Greater_1/y","shape":[],"dtype":"float32","quantization":{"dtype":"float16","original_dtype":"float32"}},{"name":"filtered_detections/map/while/embedding_lookup_2/axis","shape":[],"dtype":"int32"},{"name":"filtered_detections/map/while/strided_slice_6/stack","shape":[2],"dtype":"int32"},{"name":"filtered_detections/map/while/strided_slice_6/stack_1","shape":[2],"dtype":"int32"},{"name":"filtered_detections/map/while/strided_slice_6/stack_2","shape":[2],"dtype":"int32"},{"name":"filtered_detections/map/while/non_max_suppression_1/NonMaxSuppressionV3/max_output_size","shape":[],"dtype":"int32"},{"name":"filtered_detections/map/while/non_max_suppression_1/iou_threshold","shape":[],"dtype":"float32","quantization":{"dtype":"float16","original_dtype":"float32"}},{"name":"filtered_detections/map/while/non_max_suppression_1/score_threshold","shape":[],"dtype":"float32","quantization":{"dtype":"float16","original_dtype":"float32"}},{"name":"filtered_detections/map/while/embedding_lookup_3/axis","shape":[],"dtype":"int32"},{"name":"filtered_detections/map/while/strided_slice_11/stack","shape":[2],"dtype":"int32"},{"name":"filtered_detections/map/while/strided_slice_11/stack_1","shape":[2],"dtype":"int32"},{"name":"filtered_detections/map/while/strided_slice_11/stack_2","shape":[2],"dtype":"int32"},{"name":"filtered_detections/map/while/mul_2/x","shape":[],"dtype":"int32"},{"name":"filtered_detections/map/while/strided_slice_9/stack","shape":[1],"dtype":"int32"},{"name":"filtered_detections/map/while/strided_slice_9/stack_1","shape":[1],"dtype":"int32"},{"name":"filtered_detections/map/while/strided_slice_9/stack_2","shape":[1],"dtype":"int32"},{"name":"filtered_detections/map/while/ones_2/Const","shape":[],"dtype":"int32"},{"name":"filtered_detections/map/while/strided_slice_8/stack","shape":[2],"dtype":"int32"},{"name":"filtered_detections/map/while/strided_slice_8/stack_1","shape":[2],"dtype":"int32"},{"name":"filtered_detections/map/while/strided_slice_8/stack_2","shape":[2],"dtype":"int32"},{"name":"filtered_detections/map/while/Greater_2/y","shape":[],"dtype":"float32","quantization":{"dtype":"float16","original_dtype":"float32"}},{"name":"filtered_detections/map/while/embedding_lookup_4/axis","shape":[],"dtype":"int32"},{"name":"filtered_detections/map/while/strided_slice_10/stack","shape":[2],"dtype":"int32"},{"name":"filtered_detections/map/while/strided_slice_10/stack_1","shape":[2],"dtype":"int32"},{"name":"filtered_detections/map/while/strided_slice_10/stack_2","shape":[2],"dtype":"int32"},{"name":"filtered_detections/map/while/non_max_suppression_2/NonMaxSuppressionV3/max_output_size","shape":[],"dtype":"int32"},{"name":"filtered_detections/map/while/non_max_suppression_2/iou_threshold","shape":[],"dtype":"float32","quantization":{"dtype":"float16","original_dtype":"float32"}},{"name":"filtered_detections/map/while/non_max_suppression_2/score_threshold","shape":[],"dtype":"float32","quantization":{"dtype":"float16","original_dtype":"float32"}},{"name":"filtered_detections/map/while/embedding_lookup_5/axis","shape":[],"dtype":"int32"},{"name":"filtered_detections/map/while/strided_slice_15/stack","shape":[2],"dtype":"int32"},{"name":"filtered_detections/map/while/strided_slice_15/stack_1","shape":[2],"dtype":"int32"},{"name":"filtered_detections/map/while/strided_slice_15/stack_2","shape":[2],"dtype":"int32"},{"name":"filtered_detections/map/while/mul_3/x","shape":[],"dtype":"int32"},{"name":"filtered_detections/map/while/strided_slice_13/stack","shape":[1],"dtype":"int32"},{"name":"filtered_detections/map/while/strided_slice_13/stack_1","shape":[1],"dtype":"int32"},{"name":"filtered_detections/map/while/strided_slice_13/stack_2","shape":[1],"dtype":"int32"},{"name":"filtered_detections/map/while/ones_3/Const","shape":[],"dtype":"int32"},{"name":"filtered_detections/map/while/strided_slice_12/stack","shape":[2],"dtype":"int32"},{"name":"filtered_detections/map/while/strided_slice_12/stack_1","shape":[2],"dtype":"int32"},{"name":"filtered_detections/map/while/strided_slice_12/stack_2","shape":[2],"dtype":"int32"},{"name":"filtered_detections/map/while/Greater_3/y","shape":[],"dtype":"float32","quantization":{"dtype":"float16","original_dtype":"float32"}},{"name":"filtered_detections/map/while/embedding_lookup_6/axis","shape":[],"dtype":"int32"},{"name":"filtered_detections/map/while/strided_slice_14/stack","shape":[2],"dtype":"int32"},{"name":"filtered_detections/map/while/strided_slice_14/stack_1","shape":[2],"dtype":"int32"},{"name":"filtered_detections/map/while/strided_slice_14/stack_2","shape":[2],"dtype":"int32"},{"name":"filtered_detections/map/while/non_max_suppression_3/NonMaxSuppressionV3/max_output_size","shape":[],"dtype":"int32"},{"name":"filtered_detections/map/while/non_max_suppression_3/iou_threshold","shape":[],"dtype":"float32","quantization":{"dtype":"float16","original_dtype":"float32"}},{"name":"filtered_detections/map/while/non_max_suppression_3/score_threshold","shape":[],"dtype":"float32","quantization":{"dtype":"float16","original_dtype":"float32"}},{"name":"filtered_detections/map/while/embedding_lookup_7/axis","shape":[],"dtype":"int32"},{"name":"filtered_detections/map/while/strided_slice_19/stack","shape":[2],"dtype":"int32"},{"name":"filtered_detections/map/while/strided_slice_19/stack_1","shape":[2],"dtype":"int32"},{"name":"filtered_detections/map/while/strided_slice_19/stack_2","shape":[2],"dtype":"int32"},{"name":"filtered_detections/map/while/mul_4/x","shape":[],"dtype":"int32"},{"name":"filtered_detections/map/while/strided_slice_17/stack","shape":[1],"dtype":"int32"},{"name":"filtered_detections/map/while/strided_slice_17/stack_1","shape":[1],"dtype":"int32"},{"name":"filtered_detections/map/while/strided_slice_17/stack_2","shape":[1],"dtype":"int32"},{"name":"filtered_detections/map/while/ones_4/Const","shape":[],"dtype":"int32"},{"name":"filtered_detections/map/while/strided_slice_16/stack","shape":[2],"dtype":"int32"},{"name":"filtered_detections/map/while/strided_slice_16/stack_1","shape":[2],"dtype":"int32"},{"name":"filtered_detections/map/while/strided_slice_16/stack_2","shape":[2],"dtype":"int32"},{"name":"filtered_detections/map/while/Greater_4/y","shape":[],"dtype":"float32","quantization":{"dtype":"float16","original_dtype":"float32"}},{"name":"filtered_detections/map/while/embedding_lookup_8/axis","shape":[],"dtype":"int32"},{"name":"filtered_detections/map/while/strided_slice_18/stack","shape":[2],"dtype":"int32"},{"name":"filtered_detections/map/while/strided_slice_18/stack_1","shape":[2],"dtype":"int32"},{"name":"filtered_detections/map/while/strided_slice_18/stack_2","shape":[2],"dtype":"int32"},{"name":"filtered_detections/map/while/non_max_suppression_4/NonMaxSuppressionV3/max_output_size","shape":[],"dtype":"int32"},{"name":"filtered_detections/map/while/non_max_suppression_4/iou_threshold","shape":[],"dtype":"float32","quantization":{"dtype":"float16","original_dtype":"float32"}},{"name":"filtered_detections/map/while/non_max_suppression_4/score_threshold","shape":[],"dtype":"float32","quantization":{"dtype":"float16","original_dtype":"float32"}},{"name":"filtered_detections/map/while/embedding_lookup_9/axis","shape":[],"dtype":"int32"},{"name":"filtered_detections/map/while/strided_slice_23/stack","shape":[2],"dtype":"int32"},{"name":"filtered_detections/map/while/strided_slice_23/stack_1","shape":[2],"dtype":"int32"},{"name":"filtered_detections/map/while/strided_slice_23/stack_2","shape":[2],"dtype":"int32"},{"name":"filtered_detections/map/while/mul_5/x","shape":[],"dtype":"int32"},{"name":"filtered_detections/map/while/strided_slice_21/stack","shape":[1],"dtype":"int32"},{"name":"filtered_detections/map/while/strided_slice_21/stack_1","shape":[1],"dtype":"int32"},{"name":"filtered_detections/map/while/strided_slice_21/stack_2","shape":[1],"dtype":"int32"},{"name":"filtered_detections/map/while/ones_5/Const","shape":[],"dtype":"int32"},{"name":"filtered_detections/map/while/strided_slice_20/stack","shape":[2],"dtype":"int32"},{"name":"filtered_detections/map/while/strided_slice_20/stack_1","shape":[2],"dtype":"int32"},{"name":"filtered_detections/map/while/strided_slice_20/stack_2","shape":[2],"dtype":"int32"},{"name":"filtered_detections/map/while/Greater_5/y","shape":[],"dtype":"float32","quantization":{"dtype":"float16","original_dtype":"float32"}},{"name":"filtered_detections/map/while/embedding_lookup_10/axis","shape":[],"dtype":"int32"},{"name":"filtered_detections/map/while/strided_slice_22/stack","shape":[2],"dtype":"int32"},{"name":"filtered_detections/map/while/strided_slice_22/stack_1","shape":[2],"dtype":"int32"},{"name":"filtered_detections/map/while/strided_slice_22/stack_2","shape":[2],"dtype":"int32"},{"name":"filtered_detections/map/while/non_max_suppression_5/NonMaxSuppressionV3/max_output_size","shape":[],"dtype":"int32"},{"name":"filtered_detections/map/while/non_max_suppression_5/iou_threshold","shape":[],"dtype":"float32","quantization":{"dtype":"float16","original_dtype":"float32"}},{"name":"filtered_detections/map/while/non_max_suppression_5/score_threshold","shape":[],"dtype":"float32","quantization":{"dtype":"float16","original_dtype":"float32"}},{"name":"filtered_detections/map/while/embedding_lookup_11/axis","shape":[],"dtype":"int32"},{"name":"filtered_detections/map/while/strided_slice_27/stack","shape":[2],"dtype":"int32"},{"name":"filtered_detections/map/while/strided_slice_27/stack_1","shape":[2],"dtype":"int32"},{"name":"filtered_detections/map/while/strided_slice_27/stack_2","shape":[2],"dtype":"int32"},{"name":"filtered_detections/map/while/mul_6/x","shape":[],"dtype":"int32"},{"name":"filtered_detections/map/while/strided_slice_25/stack","shape":[1],"dtype":"int32"},{"name":"filtered_detections/map/while/strided_slice_25/stack_1","shape":[1],"dtype":"int32"},{"name":"filtered_detections/map/while/strided_slice_25/stack_2","shape":[1],"dtype":"int32"},{"name":"filtered_detections/map/while/ones_6/Const","shape":[],"dtype":"int32"},{"name":"filtered_detections/map/while/strided_slice_24/stack","shape":[2],"dtype":"int32"},{"name":"filtered_detections/map/while/strided_slice_24/stack_1","shape":[2],"dtype":"int32"},{"name":"filtered_detections/map/while/strided_slice_24/stack_2","shape":[2],"dtype":"int32"},{"name":"filtered_detections/map/while/Greater_6/y","shape":[],"dtype":"float32","quantization":{"dtype":"float16","original_dtype":"float32"}},{"name":"filtered_detections/map/while/embedding_lookup_12/axis","shape":[],"dtype":"int32"},{"name":"filtered_detections/map/while/strided_slice_26/stack","shape":[2],"dtype":"int32"},{"name":"filtered_detections/map/while/strided_slice_26/stack_1","shape":[2],"dtype":"int32"},{"name":"filtered_detections/map/while/strided_slice_26/stack_2","shape":[2],"dtype":"int32"},{"name":"filtered_detections/map/while/non_max_suppression_6/NonMaxSuppressionV3/max_output_size","shape":[],"dtype":"int32"},{"name":"filtered_detections/map/while/non_max_suppression_6/iou_threshold","shape":[],"dtype":"float32","quantization":{"dtype":"float16","original_dtype":"float32"}},{"name":"filtered_detections/map/while/non_max_suppression_6/score_threshold","shape":[],"dtype":"float32","quantization":{"dtype":"float16","original_dtype":"float32"}},{"name":"filtered_detections/map/while/embedding_lookup_13/axis","shape":[],"dtype":"int32"},{"name":"filtered_detections/map/while/strided_slice_31/stack","shape":[2],"dtype":"int32"},{"name":"filtered_detections/map/while/strided_slice_31/stack_1","shape":[2],"dtype":"int32"},{"name":"filtered_detections/map/while/strided_slice_31/stack_2","shape":[2],"dtype":"int32"},{"name":"filtered_detections/map/while/mul_7/x","shape":[],"dtype":"int32"},{"name":"filtered_detections/map/while/strided_slice_29/stack","shape":[1],"dtype":"int32"},{"name":"filtered_detections/map/while/strided_slice_29/stack_1","shape":[1],"dtype":"int32"},{"name":"filtered_detections/map/while/strided_slice_29/stack_2","shape":[1],"dtype":"int32"},{"name":"filtered_detections/map/while/ones_7/Const","shape":[],"dtype":"int32"},{"name":"filtered_detections/map/while/strided_slice_28/stack","shape":[2],"dtype":"int32"},{"name":"filtered_detections/map/while/strided_slice_28/stack_1","shape":[2],"dtype":"int32"},{"name":"filtered_detections/map/while/strided_slice_28/stack_2","shape":[2],"dtype":"int32"},{"name":"filtered_detections/map/while/Greater_7/y","shape":[],"dtype":"float32","quantization":{"dtype":"float16","original_dtype":"float32"}},{"name":"filtered_detections/map/while/embedding_lookup_14/axis","shape":[],"dtype":"int32"},{"name":"filtered_detections/map/while/strided_slice_30/stack","shape":[2],"dtype":"int32"},{"name":"filtered_detections/map/while/strided_slice_30/stack_1","shape":[2],"dtype":"int32"},{"name":"filtered_detections/map/while/strided_slice_30/stack_2","shape":[2],"dtype":"int32"},{"name":"filtered_detections/map/while/non_max_suppression_7/NonMaxSuppressionV3/max_output_size","shape":[],"dtype":"int32"},{"name":"filtered_detections/map/while/non_max_suppression_7/iou_threshold","shape":[],"dtype":"float32","quantization":{"dtype":"float16","original_dtype":"float32"}},{"name":"filtered_detections/map/while/non_max_suppression_7/score_threshold","shape":[],"dtype":"float32","quantization":{"dtype":"float16","original_dtype":"float32"}},{"name":"filtered_detections/map/while/embedding_lookup_15/axis","shape":[],"dtype":"int32"},{"name":"filtered_detections/map/while/strided_slice_35/stack","shape":[2],"dtype":"int32"},{"name":"filtered_detections/map/while/strided_slice_35/stack_1","shape":[2],"dtype":"int32"},{"name":"filtered_detections/map/while/strided_slice_35/stack_2","shape":[2],"dtype":"int32"},{"name":"filtered_detections/map/while/mul_8/x","shape":[],"dtype":"int32"},{"name":"filtered_detections/map/while/strided_slice_33/stack","shape":[1],"dtype":"int32"},{"name":"filtered_detections/map/while/strided_slice_33/stack_1","shape":[1],"dtype":"int32"},{"name":"filtered_detections/map/while/strided_slice_33/stack_2","shape":[1],"dtype":"int32"},{"name":"filtered_detections/map/while/ones_8/Const","shape":[],"dtype":"int32"},{"name":"filtered_detections/map/while/strided_slice_32/stack","shape":[2],"dtype":"int32"},{"name":"filtered_detections/map/while/strided_slice_32/stack_1","shape":[2],"dtype":"int32"},{"name":"filtered_detections/map/while/strided_slice_32/stack_2","shape":[2],"dtype":"int32"},{"name":"filtered_detections/map/while/Greater_8/y","shape":[],"dtype":"float32","quantization":{"dtype":"float16","original_dtype":"float32"}},{"name":"filtered_detections/map/while/embedding_lookup_16/axis","shape":[],"dtype":"int32"},{"name":"filtered_detections/map/while/strided_slice_34/stack","shape":[2],"dtype":"int32"},{"name":"filtered_detections/map/while/strided_slice_34/stack_1","shape":[2],"dtype":"int32"},{"name":"filtered_detections/map/while/strided_slice_34/stack_2","shape":[2],"dtype":"int32"},{"name":"filtered_detections/map/while/non_max_suppression_8/NonMaxSuppressionV3/max_output_size","shape":[],"dtype":"int32"},{"name":"filtered_detections/map/while/non_max_suppression_8/iou_threshold","shape":[],"dtype":"float32","quantization":{"dtype":"float16","original_dtype":"float32"}},{"name":"filtered_detections/map/while/non_max_suppression_8/score_threshold","shape":[],"dtype":"float32","quantization":{"dtype":"float16","original_dtype":"float32"}},{"name":"filtered_detections/map/while/embedding_lookup_17/axis","shape":[],"dtype":"int32"},{"name":"filtered_detections/map/while/strided_slice_39/stack","shape":[2],"dtype":"int32"},{"name":"filtered_detections/map/while/strided_slice_39/stack_1","shape":[2],"dtype":"int32"},{"name":"filtered_detections/map/while/strided_slice_39/stack_2","shape":[2],"dtype":"int32"},{"name":"filtered_detections/map/while/mul_9/x","shape":[],"dtype":"int32"},{"name":"filtered_detections/map/while/strided_slice_37/stack","shape":[1],"dtype":"int32"},{"name":"filtered_detections/map/while/strided_slice_37/stack_1","shape":[1],"dtype":"int32"},{"name":"filtered_detections/map/while/strided_slice_37/stack_2","shape":[1],"dtype":"int32"},{"name":"filtered_detections/map/while/ones_9/Const","shape":[],"dtype":"int32"},{"name":"filtered_detections/map/while/strided_slice_36/stack","shape":[2],"dtype":"int32"},{"name":"filtered_detections/map/while/strided_slice_36/stack_1","shape":[2],"dtype":"int32"},{"name":"filtered_detections/map/while/strided_slice_36/stack_2","shape":[2],"dtype":"int32"},{"name":"filtered_detections/map/while/Greater_9/y","shape":[],"dtype":"float32","quantization":{"dtype":"float16","original_dtype":"float32"}},{"name":"filtered_detections/map/while/embedding_lookup_18/axis","shape":[],"dtype":"int32"},{"name":"filtered_detections/map/while/strided_slice_38/stack","shape":[2],"dtype":"int32"},{"name":"filtered_detections/map/while/strided_slice_38/stack_1","shape":[2],"dtype":"int32"},{"name":"filtered_detections/map/while/strided_slice_38/stack_2","shape":[2],"dtype":"int32"},{"name":"filtered_detections/map/while/non_max_suppression_9/NonMaxSuppressionV3/max_output_size","shape":[],"dtype":"int32"},{"name":"filtered_detections/map/while/non_max_suppression_9/iou_threshold","shape":[],"dtype":"float32","quantization":{"dtype":"float16","original_dtype":"float32"}},{"name":"filtered_detections/map/while/non_max_suppression_9/score_threshold","shape":[],"dtype":"float32","quantization":{"dtype":"float16","original_dtype":"float32"}},{"name":"filtered_detections/map/while/embedding_lookup_19/axis","shape":[],"dtype":"int32"},{"name":"filtered_detections/map/while/strided_slice_43/stack","shape":[2],"dtype":"int32"},{"name":"filtered_detections/map/while/strided_slice_43/stack_1","shape":[2],"dtype":"int32"},{"name":"filtered_detections/map/while/strided_slice_43/stack_2","shape":[2],"dtype":"int32"},{"name":"filtered_detections/map/while/mul_10/x","shape":[],"dtype":"int32"},{"name":"filtered_detections/map/while/strided_slice_41/stack","shape":[1],"dtype":"int32"},{"name":"filtered_detections/map/while/strided_slice_41/stack_1","shape":[1],"dtype":"int32"},{"name":"filtered_detections/map/while/strided_slice_41/stack_2","shape":[1],"dtype":"int32"},{"name":"filtered_detections/map/while/ones_10/Const","shape":[],"dtype":"int32"},{"name":"filtered_detections/map/while/strided_slice_40/stack","shape":[2],"dtype":"int32"},{"name":"filtered_detections/map/while/strided_slice_40/stack_1","shape":[2],"dtype":"int32"},{"name":"filtered_detections/map/while/strided_slice_40/stack_2","shape":[2],"dtype":"int32"},{"name":"filtered_detections/map/while/Greater_10/y","shape":[],"dtype":"float32","quantization":{"dtype":"float16","original_dtype":"float32"}},{"name":"filtered_detections/map/while/embedding_lookup_20/axis","shape":[],"dtype":"int32"},{"name":"filtered_detections/map/while/strided_slice_42/stack","shape":[2],"dtype":"int32"},{"name":"filtered_detections/map/while/strided_slice_42/stack_1","shape":[2],"dtype":"int32"},{"name":"filtered_detections/map/while/strided_slice_42/stack_2","shape":[2],"dtype":"int32"},{"name":"filtered_detections/map/while/non_max_suppression_10/NonMaxSuppressionV3/max_output_size","shape":[],"dtype":"int32"},{"name":"filtered_detections/map/while/non_max_suppression_10/iou_threshold","shape":[],"dtype":"float32","quantization":{"dtype":"float16","original_dtype":"float32"}},{"name":"filtered_detections/map/while/non_max_suppression_10/score_threshold","shape":[],"dtype":"float32","quantization":{"dtype":"float16","original_dtype":"float32"}},{"name":"filtered_detections/map/while/embedding_lookup_21/axis","shape":[],"dtype":"int32"},{"name":"filtered_detections/map/while/strided_slice_47/stack","shape":[2],"dtype":"int32"},{"name":"filtered_detections/map/while/strided_slice_47/stack_1","shape":[2],"dtype":"int32"},{"name":"filtered_detections/map/while/strided_slice_47/stack_2","shape":[2],"dtype":"int32"},{"name":"filtered_detections/map/while/mul_11/x","shape":[],"dtype":"int32"},{"name":"filtered_detections/map/while/strided_slice_45/stack","shape":[1],"dtype":"int32"},{"name":"filtered_detections/map/while/strided_slice_45/stack_1","shape":[1],"dtype":"int32"},{"name":"filtered_detections/map/while/strided_slice_45/stack_2","shape":[1],"dtype":"int32"},{"name":"filtered_detections/map/while/ones_11/Const","shape":[],"dtype":"int32"},{"name":"filtered_detections/map/while/strided_slice_44/stack","shape":[2],"dtype":"int32"},{"name":"filtered_detections/map/while/strided_slice_44/stack_1","shape":[2],"dtype":"int32"},{"name":"filtered_detections/map/while/strided_slice_44/stack_2","shape":[2],"dtype":"int32"},{"name":"filtered_detections/map/while/Greater_11/y","shape":[],"dtype":"float32","quantization":{"dtype":"float16","original_dtype":"float32"}},{"name":"filtered_detections/map/while/embedding_lookup_22/axis","shape":[],"dtype":"int32"},{"name":"filtered_detections/map/while/strided_slice_46/stack","shape":[2],"dtype":"int32"},{"name":"filtered_detections/map/while/strided_slice_46/stack_1","shape":[2],"dtype":"int32"},{"name":"filtered_detections/map/while/strided_slice_46/stack_2","shape":[2],"dtype":"int32"},{"name":"filtered_detections/map/while/non_max_suppression_11/NonMaxSuppressionV3/max_output_size","shape":[],"dtype":"int32"},{"name":"filtered_detections/map/while/non_max_suppression_11/iou_threshold","shape":[],"dtype":"float32","quantization":{"dtype":"float16","original_dtype":"float32"}},{"name":"filtered_detections/map/while/non_max_suppression_11/score_threshold","shape":[],"dtype":"float32","quantization":{"dtype":"float16","original_dtype":"float32"}},{"name":"filtered_detections/map/while/embedding_lookup_23/axis","shape":[],"dtype":"int32"},{"name":"filtered_detections/map/while/strided_slice_51/stack","shape":[2],"dtype":"int32"},{"name":"filtered_detections/map/while/strided_slice_51/stack_1","shape":[2],"dtype":"int32"},{"name":"filtered_detections/map/while/strided_slice_51/stack_2","shape":[2],"dtype":"int32"},{"name":"filtered_detections/map/while/mul_12/x","shape":[],"dtype":"int32"},{"name":"filtered_detections/map/while/strided_slice_49/stack","shape":[1],"dtype":"int32"},{"name":"filtered_detections/map/while/strided_slice_49/stack_1","shape":[1],"dtype":"int32"},{"name":"filtered_detections/map/while/strided_slice_49/stack_2","shape":[1],"dtype":"int32"},{"name":"filtered_detections/map/while/ones_12/Const","shape":[],"dtype":"int32"},{"name":"filtered_detections/map/while/strided_slice_48/stack","shape":[2],"dtype":"int32"},{"name":"filtered_detections/map/while/strided_slice_48/stack_1","shape":[2],"dtype":"int32"},{"name":"filtered_detections/map/while/strided_slice_48/stack_2","shape":[2],"dtype":"int32"},{"name":"filtered_detections/map/while/Greater_12/y","shape":[],"dtype":"float32","quantization":{"dtype":"float16","original_dtype":"float32"}},{"name":"filtered_detections/map/while/embedding_lookup_24/axis","shape":[],"dtype":"int32"},{"name":"filtered_detections/map/while/strided_slice_50/stack","shape":[2],"dtype":"int32"},{"name":"filtered_detections/map/while/strided_slice_50/stack_1","shape":[2],"dtype":"int32"},{"name":"filtered_detections/map/while/strided_slice_50/stack_2","shape":[2],"dtype":"int32"},{"name":"filtered_detections/map/while/non_max_suppression_12/NonMaxSuppressionV3/max_output_size","shape":[],"dtype":"int32"},{"name":"filtered_detections/map/while/non_max_suppression_12/iou_threshold","shape":[],"dtype":"float32","quantization":{"dtype":"float16","original_dtype":"float32"}},{"name":"filtered_detections/map/while/non_max_suppression_12/score_threshold","shape":[],"dtype":"float32","quantization":{"dtype":"float16","original_dtype":"float32"}},{"name":"filtered_detections/map/while/embedding_lookup_25/axis","shape":[],"dtype":"int32"},{"name":"filtered_detections/map/while/strided_slice_55/stack","shape":[2],"dtype":"int32"},{"name":"filtered_detections/map/while/strided_slice_55/stack_1","shape":[2],"dtype":"int32"},{"name":"filtered_detections/map/while/strided_slice_55/stack_2","shape":[2],"dtype":"int32"},{"name":"filtered_detections/map/while/mul_13/x","shape":[],"dtype":"int32"},{"name":"filtered_detections/map/while/strided_slice_53/stack","shape":[1],"dtype":"int32"},{"name":"filtered_detections/map/while/strided_slice_53/stack_1","shape":[1],"dtype":"int32"},{"name":"filtered_detections/map/while/strided_slice_53/stack_2","shape":[1],"dtype":"int32"},{"name":"filtered_detections/map/while/ones_13/Const","shape":[],"dtype":"int32"},{"name":"filtered_detections/map/while/strided_slice_52/stack","shape":[2],"dtype":"int32"},{"name":"filtered_detections/map/while/strided_slice_52/stack_1","shape":[2],"dtype":"int32"},{"name":"filtered_detections/map/while/strided_slice_52/stack_2","shape":[2],"dtype":"int32"},{"name":"filtered_detections/map/while/Greater_13/y","shape":[],"dtype":"float32","quantization":{"dtype":"float16","original_dtype":"float32"}},{"name":"filtered_detections/map/while/embedding_lookup_26/axis","shape":[],"dtype":"int32"},{"name":"filtered_detections/map/while/strided_slice_54/stack","shape":[2],"dtype":"int32"},{"name":"filtered_detections/map/while/strided_slice_54/stack_1","shape":[2],"dtype":"int32"},{"name":"filtered_detections/map/while/strided_slice_54/stack_2","shape":[2],"dtype":"int32"},{"name":"filtered_detections/map/while/non_max_suppression_13/NonMaxSuppressionV3/max_output_size","shape":[],"dtype":"int32"},{"name":"filtered_detections/map/while/non_max_suppression_13/iou_threshold","shape":[],"dtype":"float32","quantization":{"dtype":"float16","original_dtype":"float32"}},{"name":"filtered_detections/map/while/non_max_suppression_13/score_threshold","shape":[],"dtype":"float32","quantization":{"dtype":"float16","original_dtype":"float32"}},{"name":"filtered_detections/map/while/embedding_lookup_27/axis","shape":[],"dtype":"int32"},{"name":"filtered_detections/map/while/strided_slice_59/stack","shape":[2],"dtype":"int32"},{"name":"filtered_detections/map/while/strided_slice_59/stack_1","shape":[2],"dtype":"int32"},{"name":"filtered_detections/map/while/strided_slice_59/stack_2","shape":[2],"dtype":"int32"},{"name":"filtered_detections/map/while/mul_14/x","shape":[],"dtype":"int32"},{"name":"filtered_detections/map/while/strided_slice_57/stack","shape":[1],"dtype":"int32"},{"name":"filtered_detections/map/while/strided_slice_57/stack_1","shape":[1],"dtype":"int32"},{"name":"filtered_detections/map/while/strided_slice_57/stack_2","shape":[1],"dtype":"int32"},{"name":"filtered_detections/map/while/ones_14/Const","shape":[],"dtype":"int32"},{"name":"filtered_detections/map/while/strided_slice_56/stack","shape":[2],"dtype":"int32"},{"name":"filtered_detections/map/while/strided_slice_56/stack_1","shape":[2],"dtype":"int32"},{"name":"filtered_detections/map/while/strided_slice_56/stack_2","shape":[2],"dtype":"int32"},{"name":"filtered_detections/map/while/Greater_14/y","shape":[],"dtype":"float32","quantization":{"dtype":"float16","original_dtype":"float32"}},{"name":"filtered_detections/map/while/embedding_lookup_28/axis","shape":[],"dtype":"int32"},{"name":"filtered_detections/map/while/strided_slice_58/stack","shape":[2],"dtype":"int32"},{"name":"filtered_detections/map/while/strided_slice_58/stack_1","shape":[2],"dtype":"int32"},{"name":"filtered_detections/map/while/strided_slice_58/stack_2","shape":[2],"dtype":"int32"},{"name":"filtered_detections/map/while/non_max_suppression_14/NonMaxSuppressionV3/max_output_size","shape":[],"dtype":"int32"},{"name":"filtered_detections/map/while/non_max_suppression_14/iou_threshold","shape":[],"dtype":"float32","quantization":{"dtype":"float16","original_dtype":"float32"}},{"name":"ConstantFolding/filtered_detections/map/while/ones_15/packed_const_axis","shape":[],"dtype":"int32"},{"name":"ConstantFolding/filtered_detections/map/while/ones/packed_const_axis","shape":[],"dtype":"int32"},{"name":"ConstantFolding/filtered_detections/map/while/ones_1/packed_const_axis","shape":[],"dtype":"int32"},{"name":"ConstantFolding/filtered_detections/map/while/ones_2/packed_const_axis","shape":[],"dtype":"int32"},{"name":"ConstantFolding/filtered_detections/map/while/ones_3/packed_const_axis","shape":[],"dtype":"int32"},{"name":"ConstantFolding/filtered_detections/map/while/ones_4/packed_const_axis","shape":[],"dtype":"int32"},{"name":"ConstantFolding/filtered_detections/map/while/ones_5/packed_const_axis","shape":[],"dtype":"int32"},{"name":"ConstantFolding/filtered_detections/map/while/ones_6/packed_const_axis","shape":[],"dtype":"int32"},{"name":"ConstantFolding/filtered_detections/map/while/ones_7/packed_const_axis","shape":[],"dtype":"int32"},{"name":"ConstantFolding/filtered_detections/map/while/ones_8/packed_const_axis","shape":[],"dtype":"int32"},{"name":"ConstantFolding/filtered_detections/map/while/ones_9/packed_const_axis","shape":[],"dtype":"int32"},{"name":"ConstantFolding/filtered_detections/map/while/ones_10/packed_const_axis","shape":[],"dtype":"int32"},{"name":"ConstantFolding/filtered_detections/map/while/ones_11/packed_const_axis","shape":[],"dtype":"int32"},{"name":"ConstantFolding/filtered_detections/map/while/ones_12/packed_const_axis","shape":[],"dtype":"int32"},{"name":"ConstantFolding/filtered_detections/map/while/ones_13/packed_const_axis","shape":[],"dtype":"int32"},{"name":"ConstantFolding/filtered_detections/map/while/ones_14/packed_const_axis","shape":[],"dtype":"int32"},{"name":"ConstantFolding/filtered_detections/map/while/PadV2_1/paddings_const_axis","shape":[],"dtype":"int32"},{"name":"ConstantFolding/filtered_detections/map/while/PadV2_2/paddings_const_axis","shape":[],"dtype":"int32"}]
      }
  ]
}